model/mnist_cgan_01_generator_epoch00.pt (torch, 884719 bytes, 4 tensors)

network.0.weight f4 [256, 74]
0	0x3cc2db99	0.023786353
1	0x3c4777c1	0.012174548
2	0x3c62c0a0	0.013839871
3	0x3c8d6cf2	0.017263863
4	0xba44880c	-0.0007497079
5	0xbce5bf9d	-0.02804547
6	0x3cd4ea49	0.025990622
7	0xbc96d35a	-0.018411327
8	0xbc8b01d0	-0.016968638
9	0xbc510bad	-0.012759131
10	0xbc2265c6	-0.00991196
11	0x3c33637b	0.010949011
12	0x3bfcbe30	0.007713102
13	0xbca4f943	-0.020138388
14	0x394f994b	0.00019798164
15	0xbc8bf6eb	-0.017085513
16	0x3ca6108d	0.020271564
17	0x3988ec8d	0.00026116185
18	0x3c898fc0	0.016792178
19	0xbd243e94	-0.04009874
20	0xbc3d602c	-0.011558574
21	0x3c88aa5a	0.016682792
22	0x3cdd38ba	0.027004588
23	0x3c4bcb0f	0.01243855
24	0x3c42b015	0.011882802
25	0xbd6fbcef	-0.05852979
26	0xbbccd35f	-0.0062507833
27	0xbc253778	-0.010084026
28	0x3cff59ae	0.031170692
29	0xbc8a1d88	-0.016859785
30	0xbc9e395e	-0.019314464
31	0xbb2f0f41	-0.0026711973
32	0xbc500e7c	-0.012698766
33	0xbb942ed3	-0.0045221834
34	0xbb088014	-0.0020828294
35	0x3c04db1a	0.0081088785
36	0x3c2d1e98	0.010566376
37	0xbb924ff9	-0.0044651
38	0xbc88061b	-0.016604474
39	0x3cef6cd3	0.029226696
40	0xbd0c67e8	-0.03427878
41	0xbba0e81f	-0.0049104835
42	0xbb6910f9	-0.0035563095
43	0xbcfd592a	-0.030926306
44	0xbc988ec4	-0.018622763
45	0x3c02136d	0.007939202
46	0x3b2f736a	0.0026771673
47	0xbb18db11	-0.0023323933
48	0xbc6f0de5	-0.014590715
49	0x3ba41fdc	0.0050086807
50	0xbc354f47	-0.0110662645
51	0x3c37b6f2	0.011213051
52	0x3bde8e14	0.0067918394
53	0xbc9bc502	-0.01901484
54	0x3c2bb4cc	0.010480117
55	0xbc3e0362	-0.011597486
56	0x3b71fae4	0.0036923224
57	0xbc8e8c61	-0.017400922
58	0xbc7d144b	-0.015446733
59	0xbcf7ef90	-0.0302656
60	0x3c814ae2	0.015782777
61	0xbaf089cf	-0.0018351617
62	0xbd141ad2	-0.03615839
63	0x3bbfd93f	0.005854755
64	0xbe0dbcc7	-0.13841544
65	0xbe2da328	-0.1695677
66	0xbdb19d26	-0.08672552
67	0xbd5d9296	-0.054094873
68	0xbe006034	-0.12536699
69	0xbdf137f9	-0.11778254
70	0xbe1b324f	-0.1515591
71	0xbe1f9718	-0.15584981
72	0xbe02da5d	-0.12778611
73	0xbe196a1e	-0.14981887
74	0xbaeb2aad	-0.0017941796
75	0xb967431e	-0.0002205488
76	0x3ab473dd	0.001376744
77	0x3c2a492b	0.010393421
78	0x3b2b9639	0.002618207
79	0xbb428bd1	-0.0029685388
80	0xbbd430ef	-0.00647556
81	0x38fabd22	0.00011956158
82	0xbbc8bee5	-0.006126272
83	0x3b4a327c	0.0030852845
84	0x3b7ccd77	0.0038574615
85	0xbbafcb8d	-0.0053648413
86	0xbc27bf4a	-0.010238478
87	0xbba4b932	-0.00502696
88	0xbae455fc	-0.0017420645
89	0xbbf6ac35	-0.007527853
90	0x3b3d25d1	0.0028861652
91	0xbb20a26d	-0.0024510876
92	0x3ab05bf1	0.0013455135
93	0x38f7835a	0.00011802344
94	0xbab01da9	-0.0013436574
95	0xbb89589e	-0.004191472
96	0x3b110101	0.0022125843
97	0xb9d6c984	-0.00040967402
98	0x3b727fd0	0.0037002452
99	0xbb74b28a	-0.0037337863
100	0xbbd39bd1	-0.0064577837
101	0x3b2e1387	0.0026561932
102	0xbb2e5f00	-0.0026606917
103	0x3b26837e	0.0025407965
104	0xbb78e2c8	-0.003797697
105	0x39f38ffc	0.00046455848
106	0xbb2e4c06	-0.0026595606
107	0xbb1f624f	-0.002432007
108	0x3b4b91d1	0.0031062255
109	0xbba8542e	-0.005136988
110	0x3bc37543	0.0059649064
111	0xbbaa26d3	-0.0051926165
112	0x38906344	6.884945e-05
113	0xbba21287	-0.0049460563
114	0x3660b449	3.348354e-06
115	0xbbfbce86	-0.0076845316
116	0xbbdfe983	-0.0068332567
117	0xbc2348e3	-0.009966108
118	0x39d029ec	0.00039704086
119	0xbc10375f	-0.008802264
120	0xbb8e00a7	-0.004333574
121	0x3b289cc4	0.0025728205
122	0xbbae99ef	-0.005328409
123	0xba940e80	-0.0011295825
124	0xb964b491	-0.0002181104
125	0xbbc5a640	-0.0060317814
126	0xbc140e88	-0.009036668
127	0xbb047abd	-0.002021476
128	0xbc3528a7	-0.011057056
129	0xbb28cf32	-0.0025758264
130	0xbbd8fe63	-0.006622122
131	0x3ba45002	0.0050144205
132	0x3bb7cfa2	0.0056094686
133	0xbad1589e	-0.0015971845
134	0xbaa0ec8f	-0.0012277531
135	0xbbb84c0a	-0.005624299
136	0x3ab8e0ba	0.001410506
137	0x3bad7f3f	0.00529471
138	0xbe5efe07	-0.21776591
139	0xbe6250a1	-0.2210107
140	0xbd1dde0d	-0.038541842
141	0xbdb140b7	-0.086549215
142	0xbdcd47cf	-0.10023462
143	0xbe5c26d2	-0.21499184
144	0xbe017eff	-0.12646101
145	0xbe645d5d	-0.2230124
146	0xbe4a03c0	-0.19727993
147	0xbdba73a1	-0.09104086
148	0xbd0f965c	-0.035055503
149	0xbc8e6ba6	-0.017385315
150	0xbd371310	-0.044695914
151	0xbcf7b3e6	-0.03023715
152	0xbc23b4bd	-0.009991822
153	0x3bf0fae6	0.007354128
154	0xbd027660	-0.031851172
155	0xba628792	-0.00086414174
156	0x3c7fb965	0.015608166
157	0xbd3363b4	-0.043796256
158	0x3b842454	0.004032651
159	0xbc8aec14	-0.016958274
160	0x3c2cdcd1	0.010550694
161	0x3b5550dd	0.003254942
162	0xbcfb92aa	-0.030709583
163	0x39c2d399	0.00037160216
164	0xbd264c85	-0.04060032
165	0xbc810ba6	-0.015752625
166	0xbc602a1f	-0.013681917
167	0x3b983dd9	0.0046460447
168	0x3d18123c	0.037126765
169	0xbb966ead	-0.0045908303
170	0xbcebeebd	-0.028800363
171	0x3cd328ff	0.025776384
172	0x3c2611af	0.010136052
173	0xbbc8c7f6	-0.006127353
174	0x3c03cc44	0.008044306
175	0x399dc380	0.00030091032
176	0x3c301a39	0.0107484395
177	0xbba9e754	-0.005185047
178	0x3c4b405b	0.01240548
179	0x3c442385	0.011971359
180	0xbc33c4c0	-0.010972202
181	0x3c8b6be7	0.017019225
182	0xbc8f82d2	-0.017518435
183	0xbc2c14fe	-0.010503052
184	0x3c2ab9d5	0.010420282
185	0xbcb1c823	-0.021701878
186	0xba81ddc7	-0.0009908014
187	0x3d2c274e	0.04202967
188	0xbbc34f0b	-0.0059603504
189	0x3be36f12	0.006940731
190	0xbcc2e4e6	-0.023790788
191	0x3c683485	0.014172678
192	0x3b1c33d0	0.0023834594
193	0xbcb7b784	-0.022426374
194	0xbc691e47	-0.01422841
195	0x3bdbee51	0.006711759
196	0xbce8bba0	-0.02840978
197	0xbba0e196	-0.0049097044
198	0xbd1664a0	-0.036717057
199	0xbc1f4f09	-0.009723433
200	0x3cebf2a4	0.028802224
201	0x3d097fac	0.033569023
202	0xbca84d08	-0.020544544
203	0xbac82bb7	-0.0015271817
204	0x3ccb1f08	0.02479507
205	0xbb9bba29	-0.0047524166
206	0x3cf48a2f	0.029851047
207	0xbc89a5af	-0.016802637
208	0x3c10277e	0.008798478
209	0x3c8a9810	0.016918212
210	0x3c887c8f	0.016660957
211	0x3caa76b7	0.02080856
212	0xbdb41aa0	-0.08794141
213	0xbe4613d8	-0.19343507
214	0xbe5d5d44	-0.2161761
215	0xbe605ac3	-0.21909623
216	0xbe4b2541	-0.1983843
217	0xbdc95662	-0.09830929
218	0xbe18c2a1	-0.14917995
219	0xbe7ecd30	-0.2488296
220	0xbd8e4704	-0.06947139
221	0xbdff4e16	-0.124660656
222	0xbc80efd6	-0.015739363
223	0xbbe35d63	-0.006938623
224	0xbac3979e	-0.0014922505
225	0xbbc137f8	-0.0058965646
226	0xbb47349d	-0.003039635
227	0x3b92a997	0.004475783
228	0x394ffd5b	0.0001983544
229	0xbc1b69ba	-0.009485656
230	0x3b9d7160	0.004804775
231	0x3c8ebe07	0.017424596
232	0xbb4a4921	-0.0030866342
233	0xbba16c33	-0.0049262284
234	0xbc543dba	-0.01295417
235	0x3b48b6f5	0.003062663
236	0xbb09bad2	-0.0021015895
237	0xbadbe759	-0.0016777321
238	0x3c73f247	0.014889306
239	0xbb608d4d	-0.003426391
240	0x3ba290a9	0.0049610925
241	0xbba130e5	-0.0049191588
242	0xbb415fd8	-0.002950659
243	0x3c48c5ee	0.012254221
244	0xbb797d47	-0.0038069056
245	0xba94bad7	-0.0011347187
246	0xbb6fa16a	-0.0036564716
247	0xbb03de6c	-0.0020121587
248	0x3bf2ea8e	0.007413215
249	0xbaf8a686	-0.0018970526
250	0x3c36fbcd	0.011168432
251	0xbc59179e	-0.01325026
252	0x3a86ba05	0.0010278827
253	0x3b373b5f	0.0027958972
254	0x3b1f02f8	0.0024263244
255	0x3b88264f	0.0041549574

network.0.bias f4 [256]
0	0xbcdb0ddf	-0.026740013
1	0xbdbdec74	-0.092736155
2	0xbe208d84	-0.15678984
3	0xbe413525	-0.1886793
4	0xbdee2f8f	-0.11630165
5	0xbe54e378	-0.20789897
6	0xbe58e244	-0.21180063
7	0xbe502e61	-0.20330192
8	0xbd8ee6d3	-0.0697762
9	0x3e1e60f7	0.15466677
10	0xbe441c2f	-0.19151376
11	0xbe32757c	-0.17427629
12	0xbdebaab4	-0.115071684
13	0xbdc6d848	-0.09709221
14	0xbdfb43f3	-0.1226882
15	0xbe781245	-0.2422572
16	0xbdcfffff	-0.10156249
17	0xbddd9934	-0.10820237
18	0xbd909634	-0.07059899
19	0xbe3759c6	-0.1790534
20	0xbdee03fe	-0.11621855
21	0xbd6f22fc	-0.058382973
22	0xbde2ae32	-0.11068381
23	0x3e1193aa	0.14216486
24	0xbd717501	-0.058949474
25	0xbe1dad84	-0.15398222
26	0xbd762c78	-0.060101002
27	0xbe4e10ec	-0.20123643
28	0xbdc69c08	-0.09697729
29	0x3d2584c2	0.04040981
30	0xbe07155c	-0.13191742
31	0xbe4571f2	-0.19281748
32	0xbdf40d29	-0.119165726
33	0xbe039cb4	-0.12852746
34	0xbdccb7bd	-0.09995983
35	0xbe239cc2	-0.15977767
36	0xbe874621	-0.26420692
37	0xbe02e1ba	-0.1278142
38	0xbe0ccee9	-0.13750805
39	0xbe4380df	-0.19092129
40	0xbe54c0f1	-0.20776726
41	0xbe27ef7c	-0.1639995
42	0xbe3d7fa8	-0.18505728
43	0xbe1242ea	-0.14283338
44	0xbd9012bd	-0.07034824
45	0xbe5893f0	-0.21150184
46	0xbe0b6c9a	-0.13615647
47	0xbe02d212	-0.12775448
48	0xbe2a1690	-0.1661017
49	0xbdc055c8	-0.093913615
50	0xbe2e9709	-0.17049803
51	0xbde65c01	-0.11248017
52	0xbdbfdf4f	-0.093687646
53	0xbe4c81f4	-0.19971448
54	0xbd7edc66	-0.062221907
55	0xbe2d5f8d	-0.16930981
56	0xbe32b184	-0.1745053
57	0xbe465287	-0.19367419
58	0xbdee979b	-0.1165001
59	0xbdfc4f38	-0.12319797
60	0xbe757054	-0.23968631
61	0xbe10cf02	-0.14141467
62	0xbe06ec0a	-0.1317598
63	0xbe4eea01	-0.20206453
64	0xbdf6974a	-0.12040575
65	0xbd80d6cd	-0.0629097
66	0xbe525212	-0.2053912
67	0xbe6441eb	-0.2229077
68	0xbd799d98	-0.06094131
69	0xbde94b8c	-0.113913625
70	0xbe039b9c	-0.12852329
71	0xbe2d138f	-0.16901992
72	0xbe132e04	-0.14373022
73	0xbd704da6	-0.0586678
74	0x3dfe5348	0.124182284
75	0xbe42bddf	-0.19017743
76	0xbe184ab4	-0.14872247
77	0xbe4b24aa	-0.19838205
78	0x3ebe5d0b	0.3718036
79	0xbd94a2ab	-0.07257589
80	0xbe599bfa	-0.21250907
81	0xbe13fc56	-0.14451727
82	0xbdac2f17	-0.08407419
83	0xbe4bb9fa	-0.19895163
84	0xbddfca5b	-0.10927268
85	0xbe267e5a	-0.16259137
86	0xbe0f569e	-0.13997886
87	0xbe1603ab	-0.14649837
88	0x3de7e574	0.113230616
89	0xbdbc9e6a	-0.092099026
90	0xbdf9c4c4	-0.12195733
91	0xbd16beb0	-0.036802948
92	0xbe568c4f	-0.20951961
93	0xbe211aff	-0.15732954
94	0x3e19e1ad	0.15027495
95	0xbe3a3b15	-0.181866
96	0xbdd1b39d	-0.10239337
97	0xbe0ac193	-0.13550405
98	0xbe5da28d	-0.2164404
99	0xbe5a8b61	-0.21342231
100	0xbe153174	-0.14569646
101	0xbe72c086	-0.23706254
102	0x3dd6373e	0.10459755
103	0x3d2277e2	0.03966511
104	0xbe12cd20	-0.14336061
105	0xbdd62040	-0.1045537
106	0xbdeee6c4	-0.11665109
107	0xbe1cae40	-0.15300846
108	0xbe2d0ef4	-0.16900235
109	0xbe2dfc28	-0.16990721
110	0xbe3b8b9b	-0.18314974
111	0xbe53dc55	-0.20689519
112	0xbe5ef856	-0.2177442
113	0x3e7eb05e	0.24871966
114	0xbe50be29	-0.2038504
115	0xbdcef87b	-0.10105988
116	0xbd543a14	-0.0518132
117	0xbe159bac	-0.14610165
118	0xbd860e6d	-0.0654572
119	0xbd98b36e	-0.074560985
120	0xbdbee38e	-0.09320746
121	0xbdfaa889	-0.12239177
122	0xbd5a0e02	-0.053236015
123	0xbe2a96ae	-0.16659042
124	0x3e8c691d	0.27423945
125	0xbd8ed2e6	-0.069738194
126	0xbe0d6f81	-0.13812067
127	0xbe05cdb2	-0.13066748
128	0xbe429b51	-0.19004561
129	0xbe40f5a3	-0.18843703
130	0xbe4a83d8	-0.19776857
131	0xbe008de6	-0.1255413
132	0xbe599f15	-0.21252091
133	0x3e627d8f	0.2211821
134	0xbdec6abd	-0.11543796
135	0xbdd909d1	-0.105975755
136	0xbde09f60	-0.10967898
137	0xbe45d79e	-0.19320533
138	0xbe8920d3	-0.26782855
139	0xbe670dfa	-0.22563925
140	0xbe3ab56a	-0.18233266
141	0xbe00765c	-0.1254515
142	0xbda38ffd	-0.07986448
143	0xbe28c74b	-0.16482274
144	0xbb7673f0	-0.0037605725
145	0xbdfa34e0	-0.12217116
146	0xbdffdb37	-0.12492984
147	0xbe08084f	-0.1328442
148	0xbdd5f7fb	-0.10447689
149	0xbd4e91d0	-0.050432026
150	0xbdf0f0c3	-0.11764672
151	0xbe06d90c	-0.13168734
152	0xbdf8476c	-0.12122998
153	0xbdc40494	-0.09571186
154	0xbd85a8d4	-0.06526342
155	0xbe2bbf47	-0.16772185
156	0xbe5bab83	-0.21452145
157	0xbe3ae9c7	-0.18253241
158	0xbe5ff057	-0.21869026
159	0xbe5fc3d9	-0.21852054
160	0xbe1b0e91	-0.15142275
161	0xbde65e2c	-0.112484306
162	0xbe3d4b8e	-0.18485853
163	0xbe425337	-0.18977056
164	0xbe5f1fde	-0.217895
165	0xbe40b09d	-0.18817373
166	0xbe4458cf	-0.19174503
167	0xbdd7480a	-0.10511787
168	0x3e1621e9	0.14661373
169	0xbe1bb256	-0.15204749
170	0xbd8fef09	-0.07028014
171	0xbda7fce7	-0.08202534
172	0xbe11f1f2	-0.14252451
173	0xbe2c27e6	-0.16812095
174	0xbe4b9dcf	-0.19884418
175	0xbe541053	-0.20709352
176	0xbe1483dd	-0.14503427
177	0xbdd0c9a2	-0.101947084
178	0x3e81ae36	0.25328225
179	0xbe303aef	-0.17209981
180	0x3e7f02b1	0.2490337
181	0xbe121a70	-0.14267898
182	0xbe699676	-0.22811303
183	0x3e1ee871	0.15518357
184	0xbe2690f8	-0.16266239
185	0xbdc092c5	-0.09402994
186	0xbe6181f6	-0.22022232
187	0xbda3b6bf	-0.079938404
188	0xbde46e09	-0.111538
189	0xbdf165a4	-0.117869645
190	0xbda9d608	-0.08292776
191	0xbe2dfa6e	-0.16990063
192	0xbe3a0b9e	-0.18168494
193	0xbe211b2b	-0.1573302
194	0xbd923482	-0.07138921
195	0xbe2ff034	-0.17181474
196	0xbe766f1d	-0.24065824
197	0xbd7d8c02	-0.0619011
198	0xbe18a717	-0.1490749
199	0xbd977107	-0.07394605
200	0xbe10b827	-0.14132749
201	0x3b9a1959	0.0047027287
202	0xbe1a60a8	-0.15075934
203	0xbdb3d602	-0.08781053
204	0xbe3c4b1d	-0.18388028
205	0xbe4ab173	-0.19794254
206	0xbe3e01be	-0.18555352
207	0xbe09c4cd	-0.1345398
208	0x3cd53092	0.026024137
209	0xbe077322	-0.13227513
210	0xbe3dd718	-0.18539083
211	0xbdfb3025	-0.12265042
212	0xbdd2dd30	-0.102960944
213	0xbe595a36	-0.21225819
214	0xbe45d7a2	-0.19320539
215	0xbd930641	-0.07178927
216	0xbde7737f	-0.11301326
217	0xbdbdb940	-0.09263849
218	0xbe258e1a	-0.16167489
219	0xbe1745de	-0.14772746
220	0xbdc17b57	-0.09447353
221	0xbe07a9e0	-0.13248396
222	0x3da0661f	0.07831978
223	0xbcccf2d0	-0.025018126
224	0xbdd24352	-0.102667466
225	0xbdf01dbf	-0.117244236
226	0xbdbe478a	-0.09290989
227	0xbdb9d647	-0.09074073
228	0xbe35619e	-0.17713019
229	0xbe588b36	-0.21146855
230	0xbddbc12a	-0.107302025
231	0xbdb0b9c0	-0.08629179
232	0xbe70a9e0	-0.23502302
233	0xbcc2edc4	-0.023795016
234	0xbdee09cd	-0.11622963
235	0xbe056e3a	-0.1303033
236	0xbe0b6ac0	-0.1361494
237	0xbd933faa	-0.07189877
238	0xbe3499ff	-0.1763687
239	0xbe05773b	-0.13033764
240	0xbd854f42	-0.06509258
241	0xbe4cf059	-0.2001356
242	0xbda0590e	-0.07829486
243	0xbe223382	-0.15839961
244	0xbe13afca	-0.14422527
245	0xbd5c7a9e	-0.053827874
246	0xbe56c914	-0.20975143
247	0xbe5f0101	-0.21777727
248	0xbe0c9853	-0.13729982
249	0xbe426ebc	-0.18987554
250	0xbe4a346d	-0.19746561
251	0xbe0ec23d	-0.13941284
252	0xbe166614	-0.14687377
253	0xbe1a4ea7	-0.15069066
254	0xbe271c88	-0.16319478
255	0xbe5dbd0c	-0.21654147

network.2.weight f4 [784, 256]
0	0xbd5bc87a	-0.053657986
1	0xbca5e140	-0.02024901
2	0xbd7efb85	-0.062251586
3	0xbdaeae5f	-0.085293524
4	0x3d8aa765	0.06770209
5	0xbd9880a7	-0.074464135
6	0xbd9e0486	-0.077157065
7	0xbda56048	-0.08075005
8	0xbd9eed93	-0.077601574
9	0xbcf3683a	-0.029712785
10	0xbd041718	-0.032248586
11	0xbe2100f2	-0.15723017
12	0xbd59cbc6	-0.05317285
13	0xbdf0bac9	-0.117543764
14	0xbca80eaf	-0.020514814
15	0xbe00caa9	-0.12577309
16	0xbd361e68	-0.04446259
17	0xbcba8923	-0.02277047
18	0x3c4bcaf2	0.012438523
19	0xbbb9ec9a	-0.005673957
20	0xbd4ed767	-0.050498392
21	0xbd0cd39c	-0.034381494
22	0xbdbde86c	-0.092728466
23	0xbdadc763	-0.084852956
24	0xbd38aa9e	-0.04508459
25	0x3c42356e	0.011853559
26	0x3d264fe1	0.040603522
27	0xbd358518	-0.04431638
28	0x3d22a3c0	0.039706945
29	0xbda6da57	-0.08147114
30	0xbd4f7070	-0.050644338
31	0x3d6bbe9f	0.057554837
32	0x3d042ce2	0.032269366
33	0x3d5df0e2	0.054184802
34	0x3cd9cc97	0.026586814
35	0xbd49a7cc	-0.04923229
36	0xbd5fef2e	-0.05467146
37	0xbdfe01cb	-0.12402686
38	0x3d3a34d8	0.045460552
39	0xbbb82030	-0.0056190714
40	0xbc650a87	-0.013979561
41	0xbd80529a	-0.06265755
42	0x3cea9bce	0.028638747
43	0xbd44a1ca	-0.048005857
44	0xbd969a97	-0.073537044
45	0x3c8db2ca	0.017297167
46	0x3d0c2842	0.03421808
47	0x3c4cbd50	0.0124963075
48	0xbe43e9f4	-0.19132215
49	0xbd16e294	-0.036837175
50	0xbd37d82a	-0.044883884
51	0xbcff238c	-0.03114488
52	0x3cc0f156	0.023552578
53	0xbd944ccc	-0.0724121
54	0xbc27fbd8	-0.010252915
55	0xbd342342	-0.043978937
56	0xbc5a7818	-0.013334297
57	0xbe1b73d3	-0.15180902
58	0xbda75f67	-0.081724934
59	0x3cbdb30c	0.023156665
60	0xbcd97be7	-0.026548339
61	0xbd498e5d	-0.049208034
62	0x3cb85c3d	0.02250492
63	0xbd0b3a83	-0.033991348
64	0xbcf6999c	-0.030102544
65	0x3cf64608	0.03006269
66	0xbd53b886	-0.051689647
67	0xbe0f6cef	-0.14006399
68	0xbd65182d	-0.05593126
69	0x3cfc5e32	0.030806635
70	0x3d9e7560	0.07737231
71	0x3d37d387	0.044879463
72	0xbd9c9307	-0.07645231
73	0x3ca7aab0	0.020467132
74	0xbea23b21	-0.31685737
75	0xbd7f7e15	-0.0623761
76	0xbc828af1	-0.015935393
77	0xbe4e9094	-0.2017234
78	0xbe9ac82e	-0.3023085
79	0xbcbb20f5	-0.022842864
80	0xbb21a92a	-0.002466748
81	0xbbfd8cc8	-0.0077377297
82	0xbb0d33c3	-0.0021545745
83	0x3d81214e	0.063051805
84	0xbdcf78c7	-0.10130458
85	0xbd478a31	-0.048715774
86	0xbd7cb9e7	-0.061700728
87	0xbcae7f7d	-0.021301026
88	0xbd416ef5	-0.047224957
89	0xbc157ba2	-0.009123715
90	0x3c20dbe0	0.009818047
91	0xbd7d37e2	-0.061820872
92	0xbd2580ad	-0.040405918
93	0xbdf22354	-0.118231446
94	0xbb3bad1a	-0.0028637112
95	0xbe15fcc5	-0.14647205
96	0x3ba3273e	0.0049790433
97	0x3c497050	0.012294844
98	0x3d1f8fc2	0.038955458
99	0xbd042d41	-0.03226972
100	0xbc3f4d49	-0.011676141
101	0xbd6c3503	-0.057667743
102	0x39959de0	0.0002853712
103	0xbe025235	-0.12726672
104	0x3b0ff530	0.0021966211
105	0xbd34108b	-0.04396109
106	0xbb730e30	-0.0037087314
107	0xbe0f519f	-0.1399598
108	0x3d67dda8	0.056607872
109	0xbe41d3ee	-0.18928501
110	0xbd668889	-0.056282554
111	0xbcf42ab1	-0.029805513
112	0xbd5cb08c	-0.053879306
113	0xbe4411e4	-0.1914745
114	0x3cd268fc	0.025684826
115	0xba11faef	-0.0005568703
116	0xbc927968	-0.017880157
117	0xbd207584	-0.03917457
118	0x3c1fb6d6	0.009748181
119	0x3d491a5d	0.049097408
120	0xbc27bd94	-0.01023807
121	0xbd348e91	-0.044081274
122	0x3d87a237	0.06622737
123	0xbd2238ee	-0.039605074
124	0xbe80af06	-0.25133532
125	0x3d494ff5	0.04914852
126	0xbd061ac9	-0.032740388
127	0xbce69890	-0.02814892
128	0xbcc59bd1	-0.02412215
129	0xbcd20c20	-0.025640547
130	0xbd76c700	-0.060248375
131	0xbba6482a	-0.0050745206
132	0x3c11e60a	0.008904943
133	0xbe773b00	-0.241436
134	0xbdebb82a	-0.11509736
135	0x3d228c5c	0.03968464
136	0xbb8ac2ef	-0.0042346637
137	0xbb24540d	-0.0025074512
138	0x3dd614de	0.10453199
139	0x3c611152	0.01373704
140	0xbbee82dd	-0.0072787837
141	0xbcac38cb	-0.021023175
142	0x3c54314e	0.012951208
143	0x3ced7830	0.028987974
144	0xbd9bdc8e	-0.07610427
145	0x3ca6c710	0.020358592
146	0xbd81a47d	-0.06330202
147	0xbc80d7bb	-0.015727868
148	0xbcdf9209	-0.027291315
149	0xbc232e59	-0.009959781
150	0xbd47b6d5	-0.048758347
151	0x3ce9a504	0.028521068
152	0xbd8691fe	-0.065708145
153	0xbd9cc984	-0.076556236
154	0xbc52bb5e	-0.012862055
155	0xbd4c062c	-0.049810573
156	0xbcedb1b4	-0.0290154
157	0x3c7142da	0.014725411
158	0xbda5ad52	-0.08089699
159	0xbd7eeab8	-0.062235564
160	0xbc9e57ff	-0.01932907
161	0xbe25158b	-0.16121499
162	0xbc994d20	-0.018713534
163	0x39e75d57	0.00044129297
164	0x3c30898e	0.010774983
165	0xbd8366b6	-0.06416075
166	0xbc9877be	-0.018611785
167	0x3d6bd247	0.057573583
168	0xbe482ee5	-0.19549139
169	0xbd8e1a91	-0.06938661
170	0xbd4736c4	-0.048636213
171	0xbc8900b7	-0.016723974
172	0xbc71f4dc	-0.014767852
173	0xbd1b873a	-0.03797076
174	0xbb809ef9	-0.003925201
175	0xbd064eb7	-0.032789912
176	0xbd20a4f2	-0.039219804
177	0xbc34b936	-0.011030486
178	0xbea72777	-0.32647297
179	0xbdf9315c	-0.12167618
180	0xbe857332	-0.2606445
181	0xbcd62cff	-0.026144503
182	0xbc1fbb4c	-0.009749245
183	0x3cf95c4f	0.030439524
184	0xbd85ebd1	-0.06539119
185	0xbda16f2b	-0.07882532
186	0xbd5a8947	-0.053353574
187	0x3cda4bc5	0.026647458
188	0x3c1f0f3e	0.009708224
189	0xbbadc9da	-0.0053036036
190	0x3bca3285	0.006170573
191	0xbcb54a04	-0.02213002
192	0xbbfe83d9	-0.0077671823
193	0xbd65a49c	-0.056065187
194	0xbd23c6bf	-0.03998446
195	0x3c1e4315	0.009659548
196	0xbdb97766	-0.090559766
197	0xbd47857a	-0.048711278
198	0xbd0d2d70	-0.03446716
199	0xbd35db88	-0.044398814
200	0x3d108da9	0.035291348
201	0xbd317b7f	-0.043330666
202	0xbc99f65a	-0.018794227
203	0xbd7c5bf1	-0.06161112
204	0xbd342f22	-0.04399026
205	0xbd53c2a3	-0.051699292
206	0xbd4c47b3	-0.049873065
207	0xbd94b333	-0.07260742
208	0xbe39ab95	-0.1813186
209	0xbd861db4	-0.06548634
210	0xbda2d304	-0.07950404
211	0xbc8780b7	-0.016540868
212	0xbd37a4bd	-0.04483484
213	0xbd8a5709	-0.06754882
214	0xbde29295	-0.110631146
215	0xbd01b19f	-0.031663533
216	0xbcbd8432	-0.023134325
217	0xbd028989	-0.031869445
218	0xbcd94896	-0.02652387
219	0xbd8974cd	-0.06711731
220	0xbdab6a91	-0.08369935
221	0xbb8c42ec	-0.0042804386
222	0xbe2c3226	-0.16816005
223	0x3c765092	0.015033858
224	0xbd574659	-0.052557323
225	0x3c1971b0	0.009365484
226	0xbd3997e0	-0.045310855
227	0x3ce21d7a	0.027601946
228	0xbd077926	-0.03307452
229	0xbb8c16f1	-0.0042751958
230	0x3d3eb369	0.046557818
231	0xbb2d349b	-0.002642906
232	0xbce3c710	-0.027804881
233	0xbdeb270c	-0.11482057
234	0xbd1228a3	-0.035683285
235	0x3ccfd7cb	0.025371453
236	0xbd55106a	-0.052017607
237	0xbd8049cc	-0.06264076
238	0xbbff2a62	-0.007787035
239	0xbcfaff00	-0.030639172
240	0x3d05ea8a	0.032694377
241	0xbcf9c713	-0.030490434
242	0xbce04a0b	-0.027379056
243	0x3c9fc592	0.019503389
244	0x3c05254f	0.008126571
245	0x39cea144	0.00039411534
246	0xbc9e63e6	-0.019334745
247	0x3ba10df2	0.0049149925
248	0xbd169b99	-0.036769483
249	0xbdb73cb0	-0.08947122
250	0xbc0b8461	-0.008515448
251	0xbc1f8252	-0.009735661
252	0x3b672d1d	0.0035274692
253	0xbd454fd8	-0.048171848
254	0xbd9457b3	-0.0724329
255	0xbde26aa3	-0.110554956

network.2.bias f4 [784]
0	0xbdd2768a	-0.10276516
1	0xbe5ad2b4	-0.2136944
2	0xbe4cda3c	-0.20005125
3	0xbe5c515a	-0.21515408
4	0xbe4eaef2	-0.20183924
5	0xbe1a0a89	-0.15043081
6	0xbe16dc4c	-0.14732474
7	0xbe38442d	-0.17994757
8	0xbe5546ec	-0.20827836
9	0xbe38a024	-0.18029839
10	0xbe622d7d	-0.22087665
11	0xbe234f03	-0.1594811
12	0xbe6c568a	-0.23079887
13	0xbe6ddf6b	-0.23229758
14	0xbe7a4199	-0.24439086
15	0xbe2566d7	-0.16152512
16	0xbe6a9a9f	-0.22910546
17	0xbdf0b6ec	-0.117536396
18	0xbe01a650	-0.126611
19	0xbe33e617	-0.17568241
20	0xbe2f6c50	-0.17131162
21	0xbe30d826	-0.17269954
22	0xbe5ae4fa	-0.2137641
23	0xbe53891e	-0.20657775
24	0xbe3e5298	-0.18586195
25	0xbe3a4519	-0.18190421
26	0xbe35e7ce	-0.17764208
27	0xbe6271f2	-0.22113779
28	0xbe616afd	-0.22013469
29	0xbdffcc8c	-0.12490186
30	0xbe1a9fa8	-0.15099967
31	0xbe426ed7	-0.18987595
32	0xbe3cc04a	-0.18432727
33	0xbe03634d	-0.12830849
34	0xbe0c02b5	-0.13672908
35	0xbdc1ad8e	-0.09456931
36	0xbdead369	-0.114661045
37	0xbdf077a5	-0.117415704
38	0xbe567175	-0.20941718
39	0xbe318b84	-0.17338377
40	0xbe4bd403	-0.19905095
41	0xbe41eba6	-0.18937549
42	0xbe287d44	-0.16454035
43	0xbe219915	-0.15781052
44	0xbe1fc888	-0.1560384
45	0xbe157c69	-0.1459824
46	0xbe836545	-0.256632
47	0xbe222123	-0.15832953
48	0xbe2283f2	-0.15870646
49	0xbe3900d7	-0.18066727
50	0xbe0a6aaa	-0.13517252
51	0xbe12639b	-0.14295809
52	0xbe3a3558	-0.18184412
53	0xbdfc31b6	-0.12314169
54	0xbe30dfbd	-0.1727285
55	0xbe0e1732	-0.13876036
56	0xbe45e835	-0.19326861
57	0xbe4f48fc	-0.20242685
58	0xbe0fe528	-0.1405226
59	0xbe399905	-0.18124779
60	0xbe122ee4	-0.142757
61	0xbe2316da	-0.15926686
62	0xbe3c4305	-0.18384941
63	0xbe492fae	-0.19647095
64	0xbe64e930	-0.22354579
65	0xbe50003a	-0.20312586
66	0xbe211884	-0.15732008
67	0xbe38a055	-0.18029912
68	0xbe392699	-0.1808113
69	0xbe4cd1d0	-0.20001912
70	0xbe110747	-0.14162932
71	0xbe3d41cb	-0.1848213
72	0xbe1512ff	-0.14558028
73	0xbe36809d	-0.178225
74	0xbe86210a	-0.26197082
75	0xbe2b7faa	-0.16747919
76	0xbe3ba650	-0.18325162
77	0xbe621985	-0.22080047
78	0xbe36350d	-0.17793675
79	0xbe3fa2e0	-0.18714476
80	0xbe39ef70	-0.18157744
81	0xbe79d251	-0.24396636
82	0xbe515676	-0.20443138
83	0xbe4a0586	-0.1972867
84	0xbe2aef84	-0.1669293
85	0xbe311f41	-0.17297079
86	0xbe0a7642	-0.13521674
87	0xbe3ab58f	-0.18233322
88	0xbe1673f1	-0.14692666
89	0xbe114d28	-0.14189589
90	0xbe290e0e	-0.16509268
91	0xbe38e1f0	-0.18054938
92	0xbe26a92c	-0.16275471
93	0xbe30f74d	-0.17281838
94	0xbe12b4e9	-0.14326824
95	0xbe21f458	-0.15815866
96	0xbe0ffae0	-0.14060545
97	0xbe09258f	-0.13393234
98	0xbe15f9e0	-0.14646101
99	0xbe66e2e3	-0.22547488
100	0xbda852b8	-0.08218902
101	0xbdf32e4a	-0.11874063
102	0xbe1e8ea3	-0.15484099
103	0xbe3716ee	-0.1787984
104	0xbe25488f	-0.1614096
105	0xbe6d2226	-0.23157558
106	0xbdfe22ea	-0.12409003
107	0xbe1be9ae	-0.1522586
108	0xbe361c69	-0.17784275
109	0xbe548fae	-0.20757934
110	0xbdfaf43f	-0.122536175
111	0xbe3c6eac	-0.18401593
112	0xbe432bbb	-0.1905965
113	0xbe406a09	-0.18790449
114	0xbe266d5a	-0.16252652
115	0xbe4fa8b6	-0.20279202
116	0xbe256d57	-0.16154991
117	0xbe20aad2	-0.15690163
118	0xbe17193a	-0.14755717
119	0xbe3c4266	-0.18384704
120	0xbe2c118e	-0.16803572
121	0xbe36042a	-0.17775026
122	0xbe07cbe9	-0.1326138
123	0xbde30af7	-0.11086076
124	0xbde32705	-0.11091427
125	0xbe1a43d5	-0.15064938
126	0xbdbc2ab2	-0.09187831
127	0xbda93be7	-0.082633786
128	0xbe2f4532	-0.1711624
129	0xbdb7b448	-0.08969933
130	0xbe2476ad	-0.16060896
131	0xbe485c9f	-0.19566582
132	0xbe0b90db	-0.13629477
133	0xbdec8980	-0.115496635
134	0xbe529f11	-0.20568492
135	0xbe27a26e	-0.16370556
136	0xbe046d40	-0.129323
137	0xbe510991	-0.20413806
138	0xbe3410aa	-0.17584482
139	0xbe783651	-0.2423947
140	0xbe3a0221	-0.18164875
141	0xbe592903	-0.21207051
142	0xbe2aa1e4	-0.16663319
143	0xbe259263	-0.16169123
144	0xbe2cb456	-0.16865668
145	0xbde75ce1	-0.11297012
146	0xbe1fe1d5	-0.15613492
147	0xbe28edcb	-0.16496961
148	0xbdff8612	-0.12476744
149	0xbddcf63d	-0.10789154
150	0xbd8a1779	-0.06742758
151	0xbd09ed05	-0.033673305
152	0xbd238405	-0.039920826
153	0xbe193a3d	-0.14963622
154	0xbd919a1d	-0.07109473
155	0xbd81869c	-0.06324503
156	0xbd3825d6	-0.04495796
157	0xbd892794	-0.06697002
158	0xbd8cceb0	-0.0687536
159	0xbdb6e531	-0.089304335
160	0xbe00eca3	-0.1259027
161	0xbde23f40	-0.1104722
162	0xbe18c6bb	-0.1491956
163	0xbe2a9cf2	-0.16661432
164	0xbe0ecfc8	-0.1394645
165	0xbe376dc5	-0.17912968
166	0xbe4618fc	-0.19345468
167	0xbe1dd6df	-0.15413998
168	0xbe40b31c	-0.18818325
169	0xbe642d99	-0.22283019
170	0xbde2a27a	-0.11066146
171	0xbe563607	-0.20919047
172	0xbe0a8777	-0.13528238
173	0xbe2ff61e	-0.1718373
174	0xbe30ff03	-0.17284779
175	0xbde8789e	-0.11351131
176	0xbe17c589	-0.14821447
177	0xbe01885b	-0.12649672
178	0xbe68c74d	-0.22732277
179	0xbdedfec9	-0.11620862
180	0xbd8f476c	-0.069960445
181	0xbcb97f9c	-0.022643857
182	0xbc8a295c	-0.016865425
183	0xbbfccc90	-0.0077148154
184	0xbbca0ab5	-0.006165827
185	0xbdb48ac4	-0.0881553
186	0xbd664906	-0.056221984
187	0xbe1ba2ca	-0.15198818
188	0xbde00146	-0.10937743
189	0xbe6b17db	-0.22958319
190	0xbdde3b2b	-0.10851129
191	0xbe3e661a	-0.18593636
192	0xbe59c15c	-0.21265167
193	0xbe2f0ca3	-0.17094664
194	0xbe4cc1ad	-0.19995756
195	0xbe0fdbd7	-0.14048706
196	0xbe411c1a	-0.18858376
197	0xbe312d1c	-0.17302364
198	0xbe4d0e4e	-0.20024988
199	0xbe413822	-0.18869069
200	0xbe42983b	-0.19003384
201	0xbe84c2c1	-0.25929835
202	0xbdf36403	-0.1188431
203	0xbe401838	-0.18759239
204	0xbd68c687	-0.056829955
205	0xbdec403f	-0.115356915
206	0xbde036a3	-0.10947921
207	0xbd0543b4	-0.03253527
208	0x3d167016	0.036727987
209	0xbd9d9c02	-0.07695772
210	0x3cd302c8	0.025758162
211	0xbd0ff808	-0.03514865
212	0x3cf8e17a	0.030380953
213	0x3cbab2b4	0.02279029
214	0xbd3eb970	-0.046563566
215	0xbbddf3af	-0.006773434
216	0xbcdc52b7	-0.02689491
217	0xbe26673e	-0.16250321
218	0xbdab0607	-0.08350759
219	0xbe359744	-0.17733485
220	0xbe2ccc7c	-0.1687488
221	0xbe45b370	-0.19306731
222	0xbe2fea33	-0.17179184
223	0xbe2c2944	-0.16812617
224	0xbe7d2cb3	-0.24724083
225	0xbe0ed82e	-0.13949654
226	0xbda628b1	-0.0811323
227	0xbe22cc61	-0.15898277
228	0xbe2a6e8b	-0.16643731
229	0xbe06f7d8	-0.13180482
230	0xbdfa2461	-0.1221397
231	0xbdc4ecb5	-0.09615461
232	0xbe0d42fb	-0.13795082
233	0xbe447ab9	-0.1918744
234	0xbd691df6	-0.05691334
235	0xbc15b89f	-0.009138255
236	0xbcdbb3c1	-0.026819112
237	0xbd49649c	-0.049168214
238	0xbcd4c382	-0.025972132
239	0xbbb02adc	-0.005376203
240	0xbd9e2987	-0.077227645
241	0xbbd97a81	-0.006636918
242	0xbcb4aa20	-0.022053778
243	0xbe1271e2	-0.14301255
244	0xbcdec0df	-0.027191577
245	0xbdc40bc0	-0.09572554
246	0xbe0ce98d	-0.13760968
247	0xbe1d4462	-0.15358117
248	0xbe4e6201	-0.20154573
249	0xbe31acb6	-0.1735104
250	0xbe704d2c	-0.23466939
251	0xbe3b2e8a	-0.18279472
252	0xbe26b684	-0.16280562
253	0xbdd6b06e	-0.1048287
254	0xbe56f92a	-0.20993486
255	0xbe2a1b04	-0.16611868
