model/mnist_cgan_01_discriminator_epoch10.pt (torch, 817095 bytes, 3 tensors)

network.0.weight f4 [256, 794]
0	0xbc855b77	-0.016278965
1	0x3cc85579	0.024454819
2	0x3d3bffe9	0.04589835
3	0x3c7e6b8c	0.015528571
4	0x3d81bb9f	0.06334614
5	0xbd126767	-0.035743143
6	0x3cb460bb	0.022018781
7	0xbc99b16f	-0.018761365
8	0x3bb3b646	0.005484375
9	0x3d146d24	0.036236897
10	0xbd4eb13a	-0.050461985
11	0xbd07048a	-0.032963313
12	0x3d257c2e	0.04040163
13	0xbc5ccfc1	-0.013477267
14	0xbd128c8c	-0.035778567
15	0xbbdde9dd	-0.0067722634
16	0x3dec9394	0.11551586
17	0xbc5b3bb2	-0.013380932
18	0x3d543f9f	0.051818486
19	0x3daa7f22	0.0832503
20	0x3d52166d	0.05129092
21	0xbc3d80b7	-0.011566333
22	0xbcbb00c5	-0.022827515
23	0x3d05bf29	0.032653008
24	0xbd2280e3	-0.039673697
25	0x3d839a35	0.06425897
26	0xbcb70559	-0.022341417
27	0x3d900b68	0.070334256
28	0x3d401e28	0.04690376
29	0x3c7ca2c4	0.015419666
30	0x3d8d50a3	0.06900146
31	0x3d9a4f83	0.07534697
32	0xbd36c6e9	-0.04462329
33	0xbbdd8bc0	-0.0067610443
34	0x3c79db52	0.015250044
35	0x3cedd0f5	0.029030303
36	0x3c417e21	0.011809857
37	0x3d18f473	0.0373425
38	0x3cc3d9da	0.02390759
39	0x3dc35347	0.09537368
40	0x3d972924	0.07380894
41	0x3d1d4d0b	0.038403552
42	0xbd2a93f5	-0.04164501
43	0xbd1d71ab	-0.03843848
44	0x3a9c4b9d	0.001192439
45	0xbc7fe761	-0.01561913
46	0xbc119331	-0.008885191
47	0xbbf4ecb2	-0.0074745053
48	0x3c29a1ed	0.0103535475
49	0x3d920ec6	0.07131724
50	0x3d6897f4	0.05678554
51	0xbd31fce1	-0.043454055
52	0x3d86f945	0.06590513
53	0xbd4b733f	-0.049670454
54	0xbc89ac75	-0.016805867
55	0x3d8d0271	0.06885231
56	0x3c6e6e3a	0.014552647
57	0x3baf0da0	0.0053422004
58	0x3cbbade6	0.02291007
59	0x3b7f9a03	0.003900171
60	0x3caed943	0.021343833
61	0x3ce6d7f2	0.028179143
62	0x3d999e01	0.0750084
63	0xbc6ebcb9	-0.014571362
64	0x3c8ff6db	0.017573765
65	0x3d27683d	0.040870894
66	0x3a1d4bb8	0.00060003577
67	0xbccd8e32	-0.025092218
68	0x3aede6e6	0.0018150478
69	0x3d4b88e3	0.049691092
70	0xbcaa8f2b	-0.020820221
71	0xbc2c84e5	-0.010529731
72	0x3c15e680	0.009149194
73	0x3d0b97b9	0.03408024
74	0x3ad6d0b6	0.0016389105
75	0x3d133592	0.03593976
76	0x3d2a54f7	0.041584935
77	0x3ca0e414	0.019640006
78	0x3cb941a6	0.022614311
79	0xbc10d31f	-0.008839398
80	0x3ca34e5c	0.019934826
81	0xbc738686	-0.014863616
82	0x3a844b56	0.0010093253
83	0x39ba3b5e	0.00035520917
84	0x3dac7c12	0.08422102
85	0x3d97c88e	0.074113
86	0x3cb8973d	0.022533054
87	0xbba62b63	-0.00507109
88	0x3d159e5a	0.03652797
89	0x3cf7c668	0.030245975
90	0x3c8352ac	0.016030632
91	0x3d13a802	0.036048897
92	0x3d08c918	0.033394903
93	0x3d87af4b	0.06625231
94	0x3d8cc3e7	0.06873303
95	0x3cc3f867	0.023922158
96	0x3d41f3a8	0.04735151
97	0x3d280a5e	0.041025512
98	0xbb26b010	-0.0025434531
99	0xb9a53cac	-0.00031516457
100	0x3c51e65a	0.012811268
101	0xbca22500	-0.019793034
102	0x3db2e8f9	0.08735842
103	0x3da2754c	0.07932529
104	0x3ce34366	0.027742099
105	0x3d7f59e6	0.062341593
106	0x3c17eeef	0.009273275
107	0x3caea5f4	0.021319367
108	0x3c69c12c	0.014267247
109	0x3d02ba76	0.031916104
110	0x3cadd07e	0.02121758
111	0x3cdd479c	0.027011685
112	0x3d0261ff	0.031831738
113	0xbd818ea6	-0.06326036
114	0xba81a22f	-0.0009890253
115	0x3da388a0	0.079850435
116	0x3d4b9f30	0.04971236
117	0xbbf2950e	-0.0074030226
118	0x3dafb381	0.085791595
119	0x3c8cecab	0.017202696
120	0x3bd7ac5d	0.0065818266
121	0xbd21668f	-0.039404448
122	0x3cc730f6	0.024315339
123	0xbc8e36b7	-0.017360074
124	0xbcebbd07	-0.028776659
125	0x3cab29bb	0.020893922
126	0x3c8e4a3c	0.017369382
127	0xbd609980	-0.05483389
128	0x3b25b365	0.002528393
129	0xbdcf8b94	-0.10134044
130	0xbca8bcf0	-0.020597905
131	0xbd2ed99a	-0.04268799
132	0x3da24f7e	0.07925318
133	0x3cc48f61	0.02399415
134	0x3d80ad08	0.06283003
135	0xbd3dd1b1	-0.046342555
136	0x3cac5339	0.021035777
137	0xbbe947fb	-0.0071191764
138	0x3c569a03	0.013098243
139	0xba84f0f3	-0.0010142609
140	0xbd2a2721	-0.041541222
141	0x3d0dd3e6	0.03462591
142	0xbc11423f	-0.008865892
143	0x3d05e72e	0.032691173
144	0x3d08fad7	0.033442345
145	0x3d1d4abc	0.03840135
146	0x3bb833d4	0.005621413
147	0x3d8640d9	0.065553375
148	0x3d166d48	0.036725312
149	0x3cfb522e	0.030678835
150	0xbbe9941a	-0.007128251
151	0xbcb7bc92	-0.022428785
152	0x3c0a11f0	0.008427128
153	0x3c86b502	0.016443733
154	0x3d08ffda	0.033447124
155	0x3d72b0d8	0.059250683
156	0xbd0bf764	-0.034171477
157	0xbc0223bc	-0.00794309
158	0x3db8d7ea	0.09025557
159	0xbd759770	-0.059958875
160	0x3c86e098	0.016464517
161	0xbcd022f8	-0.0254073
162	0x3d9bce48	0.076077044
163	0xbd3c26d6	-0.045935474
164	0xbce90caa	-0.028448422
165	0x3db98218	0.090580165
166	0xbd82f42a	-0.06394227
167	0x3baab3a9	0.0052094054
168	0x3d7c779d	0.06163751
169	0xbc0473c8	-0.008084245
170	0x3d1eca91	0.0387674
171	0xbcad5602	-0.021159176
172	0x3d6b3b4b	0.057429593
173	0xbd078c56	-0.03309282
174	0x3dab478a	0.08363254
175	0x3d7d572f	0.061850723
176	0x3c8edfc3	0.017440682
177	0x3b8866b8	0.0041626357
178	0x3baaf29f	0.005216911
179	0x3d353e77	0.044249024
180	0x3afe7c6a	0.001941574
181	0x3e2d89fd	0.1694717
182	0xbe1df664	-0.15426022
183	0x3d8f2116	0.069887325
184	0x3d0e458b	0.03473429
185	0x3c1359b1	0.008993552
186	0xbcf19129	-0.029488163
187	0x3de7cdda	0.1131856
188	0x3d158693	0.036505293
189	0x3ae4353e	0.0017410887
190	0xbd50df18	-0.05099401
191	0x3ce797b2	0.028270576
192	0x3d2bca88	0.041941196
193	0x3d938671	0.07203377
194	0x3dce60d4	0.10077062
195	0xbcf4ec30	-0.02989778
196	0x3c87ba32	0.016568277
197	0x3d7d24dd	0.061802734
198	0x3baa4a6c	0.00519686
199	0x3d8512df	0.0649774
200	0xbc97eb4b	-0.018544814
201	0xbd7a3217	-0.061082926
202	0x3dc4f468	0.09616929
203	0x3dbcfb21	0.092275865
204	0xbcb2f8b8	-0.021847114
205	0x3b221aec	0.0024735285
206	0x3d019200	0.031633377
207	0xbd60f3da	-0.054920055
208	0xbd487eab	-0.048948925
209	0x3d66350a	0.056202926
210	0xbe0ae0fa	-0.13562384
211	0x3dec219b	0.11529847
212	0x3d84d69f	0.06486248
213	0xbe17f848	-0.14840806
214	0xbca2851c	-0.019838862
215	0xbd5dbb59	-0.054133747
216	0x3d1f4dce	0.03889256
217	0x3cd610ce	0.02613106
218	0x3d92f10c	0.07174882
219	0x3d7c4b98	0.06159553
220	0x3bb93457	0.0056519913
221	0xbc195af0	-0.00936006
222	0x3d8e102f	0.069366805
223	0xbc9ca671	-0.019122334
224	0xbcc69bc9	-0.024244206
225	0x3c90a6a0	0.017657578
226	0x3bdfcbc9	0.006829713
227	0x3d09f55b	0.033681255
228	0xbcb33033	-0.02187357
229	0x3bb66e34	0.0055673365
230	0xbcdc5e9b	-0.02690058
231	0xbdcf8deb	-0.101344906
232	0x3dfd3c21	0.12364984
233	0xbc1c4299	-0.0095373625
234	0x3d4a96df	0.049460288
235	0xbd12af76	-0.035811864
236	0x3cd186aa	0.025576908
237	0xbc24ef35	-0.010066797
238	0xbac41df6	-0.0014962542
239	0xbde04ecc	-0.10952529
240	0x3d33f941	0.04393888
241	0xbad65db5	-0.0016354831
242	0x3bd0ed03	0.0063759102
243	0x3c3a71f8	0.011379711
244	0x3d2be45c	0.041965827
245	0xbb3ac0b9	-0.002849622
246	0xbd2e14fc	-0.04250048
247	0x3c68206d	0.014167887
248	0x3b15764b	0.0022806104
249	0x3cd5d855	0.026104132
250	0xbc1ef888	-0.009702809
251	0x39406e59	0.00018351655
252	0x3cedfdf9	0.029051768
253	0xbb45855b	-0.00301393
254	0xbd109a17	-0.0353032
255	0xbcd3c0ad	-0.02584871

network.0.bias f4 [256]
0	0x3eb116cf	0.34587714
1	0x3e884b65	0.2662002
2	0x3e718ac3	0.2358809
3	0xbf8bcfea	-1.0922825
4	0x3e9d0e2c	0.30674875
5	0x3c5fa433	0.013649988
6	0x3ed1d8f3	0.40985832
7	0x3f39c173	0.72560805
8	0xbcaa4fbe	-0.020789977
9	0x3f2bdc8a	0.6713339
10	0xbcb25441	-0.021768691
11	0x3e72dfde	0.23718211
12	0x3e89fc0d	0.26950112
13	0x3e7ceb04	0.24699026
14	0xbb8b68e7	-0.0042544487
15	0xbec9025a	-0.39259607
16	0xbf80c452	-1.0059912
17	0x3ec84665	0.39116207
18	0x3efca26c	0.49342668
19	0xbd5fda57	-0.054651584
20	0x3ef75d1c	0.48313224
21	0x3e442663	0.19155268
22	0x3e9a3444	0.30118
23	0xbf2fa243	-0.68606967
24	0x3ec622be	0.3869838
25	0x3b115d60	0.00221809
26	0xbf44e54b	-0.76912373
27	0x3f1ae461	0.6050473
28	0x3ea85608	0.32878137
29	0x3ef03d0a	0.4692157
30	0x3e993b6c	0.29928148
31	0xbc5a5b4c	-0.013327431
32	0xbf236723	-0.6382925
33	0xbcd36837	-0.02580653
34	0x3f002a15	0.5006421
35	0x3ea4fb0f	0.32222793
36	0x3e7642d4	0.2404893
37	0x3ea50a4c	0.32234418
38	0x3e9b0f8b	0.30285296
39	0x3f4943ce	0.78619087
40	0x3ed9f925	0.42572895
41	0x3e9ceb53	0.30648288
42	0x3e42c5b5	0.19020732
43	0xbebbd3d2	-0.36685044
44	0xbcee5a0d	-0.029095674
45	0x3e82ec23	0.25570783
46	0x3c0172bc	0.00790089
47	0xbec1b383	-0.3783227
48	0x3e6aa286	0.2291356
49	0x3eb36718	0.35039592
50	0xbd21d66d	-0.039511133
51	0x3ef028b7	0.46906063
52	0x3e7820eb	0.24231307
53	0xbd19507a	-0.037430264
54	0xbf892355	-1.0713907
55	0x3e5f4f27	0.21807538
56	0xbe9c809f	-0.3056688
57	0xbce6708b	-0.028129837
58	0xbd654fbd	-0.055984247
59	0xbd070f6e	-0.0329737
60	0x3ecd8e13	0.40147457
61	0x3ea89cfd	0.32932273
62	0x3e1c5985	0.15268524
63	0x3f16d16b	0.58913296
64	0x3f1ff66b	0.6248538
65	0xbcbacf64	-0.02280397
66	0x3ef57aaf	0.47945163
67	0x3e935a81	0.28779987
68	0xbb31eeb6	-0.002715034
69	0xbd10d6a7	-0.03536096
70	0x3ebda75c	0.37041748
71	0xbd49628e	-0.049166255
72	0x3eb117a6	0.34588355
73	0x3dc63448	0.096779406
74	0xbf10dd32	-0.5658752
75	0x3f2f9dda	0.6860024
76	0xbc6d2e84	-0.014476422
77	0x3e482fa1	0.19549419
78	0xbc3357ef	-0.010946258
79	0x3aa8e2b6	0.0012884948
80	0x3f30bcf4	0.6903832
81	0xbcbc62e9	-0.022996383
82	0x3f366680	0.7125015
83	0x3c4b054f	0.012391402
84	0x3ef2bd1b	0.474099
85	0xbd680a1d	-0.05665027
86	0xbd1f5102	-0.038895614
87	0x3b736b9e	0.0037143002
88	0x3e19d5b4	0.15022928
89	0x3eaff538	0.34366775
90	0x3e94e4ac	0.29080713
91	0x3e9b3319	0.30312422
92	0x3e439d38	0.19102943
93	0xbcf56722	-0.029956404
94	0x3e9b7879	0.3036535
95	0x3e712ea3	0.23552947
96	0x3e22c1c5	0.1589423
97	0x3f34fe70	0.7070074
98	0x3e564b41	0.20927145
99	0x3e8479ff	0.25874326
100	0x3e9ec7b1	0.31011727
101	0x3f485fe6	0.7827133
102	0x3eada67c	0.3391608
103	0x3e32b1bb	0.17450611
104	0x3f1a51e7	0.60281223
105	0x3c1ce66e	0.009576423
106	0x3ef2d726	0.4742977
107	0xbf425f2c	-0.7592647
108	0x3e57927a	0.2105197
109	0x3dd945d7	0.10609024
110	0x3e7bdceb	0.24595992
111	0xbc461a57	-0.012091241
112	0x3e44ee69	0.19231571
113	0x3d7461dd	0.059663642
114	0x3e59b4d8	0.21260393
115	0x3f0f064e	0.55868995
116	0xbd7732eb	-0.060351294
117	0xbca62be7	-0.020284606
118	0xbf8f6ef1	-1.1205732
119	0x3ef54053	0.47900638
120	0xbc9cbddf	-0.019133506
121	0x3e62b658	0.22139871
122	0x3eb88f77	0.36046955
123	0xbcfbf536	-0.030756574
124	0x3ea6f0db	0.32605633
125	0xbf64bbdb	-0.89349145
126	0xbea76fa7	-0.3270237
127	0x3ef9c349	0.48781803
128	0x3f0e285b	0.5553033
129	0xbce499a2	-0.02790529
130	0x3eb2b7bd	0.34905806
131	0xbce963d7	-0.02848999
132	0x3f129882	0.5726396
133	0xbf00e2c8	-0.5034604
134	0x3c350a81	0.011049868
135	0x3e31baea	0.17356458
136	0xbf0957d4	-0.5364964
137	0xbd3d1780	-0.04616499
138	0x3cf6ad68	0.030111983
139	0x3f1d456a	0.6143404
140	0xbcc1d70f	-0.023662118
141	0x3bf3a96a	0.007435967
142	0x3f3aa7d3	0.7291233
143	0x3d96878b	0.073500715
144	0x3cb1a748	0.021686211
145	0x3f5549f1	0.8331595
146	0xbcd3a6af	-0.025836317
147	0x3ee56a09	0.4480746
148	0xbf86eeae	-1.0541589
149	0x3ea37803	0.319275
150	0xbc3494d3	-0.011021811
151	0x3eac7db5	0.33689657
152	0x3f048889	0.51770836
153	0xbcfd6f04	-0.030936725
154	0x3ec71de9	0.38890007
155	0xbcd071a9	-0.025444822
156	0xbd29e38a	-0.041476764
157	0xbd35c435	-0.04437657
158	0x3ebe7c1a	0.37204057
159	0x3f197aa9	0.5995279
160	0x3e1f2428	0.15541136
161	0xbe9e578b	-0.30926165
162	0x3edc78e4	0.43060982
163	0x3eaad3dc	0.3336476
164	0x3ee2f39b	0.4432648
165	0x3ea596d5	0.32341638
166	0x3f35463d	0.708103
167	0x3ea961e3	0.33082494
168	0x3e97c68f	0.29643676
169	0x3edb2a51	0.42805722
170	0xbbdf33e9	-0.006811608
171	0x3d3bb922	0.045830853
172	0xbecae7b6	-0.39629906
173	0x3f00ee4b	0.50363606
174	0xbd3031cb	-0.043016236
175	0x3f097535	0.5369447
176	0x3e653b90	0.22386003
177	0xbd87a63f	-0.06623506
178	0xbf158224	-0.58401704
179	0x3e4837e4	0.1955257
180	0x3f00dfb2	0.5034133
181	0x3e751ad5	0.23936017
182	0x3e289d96	0.16466364
183	0x3f3430c1	0.7038689
184	0x3b8acb35	0.00423565
185	0x3f0e2750	0.55528736
186	0x3f0b8c91	0.5451136
187	0xbd27818f	-0.04089504
188	0x3e848deb	0.25889525
189	0xbbf2e135	-0.0074121007
190	0x3e4b576e	0.1985757
191	0x3e94dda5	0.2907535
192	0x3ad29d4b	0.0016068605
193	0xbf893850	-1.072031
194	0x3ad3e884	0.0016167318
195	0xbadd3c38	-0.0016878909
196	0x3c9c5fcf	0.019088654
197	0xbf993e76	-1.1972187
198	0x3ecb06a5	0.39653507
199	0xbe3ec689	-0.18630423
200	0xbab359fb	-0.0013683432
201	0x3e884ed8	0.26622653
202	0x3e8ab847	0.27093717
203	0x3efa88fb	0.48932633
204	0x3b4c2dc8	0.0031155217
205	0xbd0b72e7	-0.034045126
206	0x3eb3fb6a	0.3515275
207	0xbd166c32	-0.036724277
208	0x3f0a8b45	0.5411876
209	0xbcc92a36	-0.02455626
210	0x3eaa1621	0.33220008
211	0x3eb0d613	0.34538326
212	0xbbf88c06	-0.0075850515
213	0xbaf96d49	-0.0019029762
214	0xbcb4d5ee	-0.022074666
215	0x3c3ed28b	0.011646877
216	0x3e25fa22	0.162087
217	0x3e8c1b3c	0.27364528
218	0xbec96f3b	-0.39342675
219	0x3dd7e465	0.1054161
220	0xbd68fcb7	-0.056881633
221	0x3eabeddf	0.3357992
222	0x3c9589df	0.018254219
223	0x3e9bb58c	0.30411947
224	0xbf3dc616	-0.7413038
225	0xbc30cc43	-0.010790887
226	0xbe8e5f31	-0.27807
227	0xbc83609c	-0.016037278
228	0x3f3505ee	0.70712173
229	0x3f2abf42	0.66698086
230	0xbd398274	-0.045290425
231	0x3f1758e7	0.5912003
232	0xbbfeb6c8	-0.007773254
233	0x3e9d2e1d	0.30699244
234	0xbec0ca17	-0.37654182
235	0xbe148688	-0.14504445
236	0x3f320470	0.6953802
237	0x3e801a39	0.25020006
238	0x3b402d0a	0.002932372
239	0x3e8a08ae	0.26959747
240	0x3f0586af	0.52158636
241	0xbc8f4d10	-0.017492801
242	0xbd310402	-0.043216713
243	0xbce71688	-0.028208986
244	0x3d436cb1	0.047711078
245	0xbcff4d6a	-0.031164844
246	0x3e9182bc	0.28420055
247	0x3e92ceaa	0.28673297
248	0x3efb0c2a	0.49032718
249	0x3f3da116	0.7407392
250	0x3e969090	0.29407167
251	0xbcfae6b0	-0.030627578
252	0x3eb3d5e1	0.35124114
253	0xbd469b4d	-0.04848795
254	0x3b3723b1	0.0027944858
255	0xbd8cd1ca	-0.068759516

network.2.weight f4 [1, 256]
0	0xbe6e8c51	-0.23295714
1	0xbdfbd64f	-0.122967355
2	0xbdcd3dcb	-0.10021552
3	0x3cac28b3	0.0210155
4	0xbdf8e63f	-0.12153291
5	0xbd689e0d	-0.056791354
6	0xbdf031b7	-0.11728232
7	0xbdb28c92	-0.08718218
8	0x3d112f01	0.035445217
9	0xbd4dcbd9	-0.050243232
10	0xbd3a03c7	-0.04541376
11	0xbd31d623	-0.043417107
12	0xbe6c57cb	-0.23080365
13	0xbdabeec1	-0.08395148
14	0x3d340663	0.043951403
15	0xbc926c2b	-0.017873844
16	0x3b81a6bf	0.0039566453
17	0xbe6ad12b	-0.22931354
18	0xbcb28d77	-0.021795971
19	0xbd0d74e6	-0.03453531
20	0xbe4109e5	-0.1885143
21	0xbd6b43e3	-0.05743779
22	0xbe0fa34e	-0.1402714
23	0xbb339165	-0.0027399894
24	0xbddb380c	-0.107040495
25	0x3c696220	0.014244586
26	0xbbed299c	-0.0072376262
27	0xbe14091f	-0.14456604
28	0xbe0b5a66	-0.13608703
29	0xbd328e3a	-0.04359267
30	0xbdce6d55	-0.10079447
31	0x3ce9993f	0.028515456
32	0xbbe6b7d1	-0.0070409556
33	0xbbc2bd3b	-0.005942968
34	0xbd8d4388	-0.06897646
35	0xbd271a75	-0.040796716
36	0xbd53ec85	-0.051739234
37	0xbceb8337	-0.028749092
38	0xbe715547	-0.23567687
39	0xbe5c21e4	-0.21497303
40	0xbddca5fe	-0.10773848
41	0xbe449d42	-0.19200614
42	0x3d4b110b	0.0495768
43	0xbbd9d7ca	-0.0066480385
44	0x3d1b7215	0.037950594
45	0xbeaedc5c	-0.34152496
46	0x3bc4ad32	0.006002092
47	0xbc85e38f	-0.01634386
48	0x3be3732e	0.0069412207
49	0xbe597112	-0.21234539
50	0x3cdfa5ba	0.027300704
51	0xbd86676c	-0.06562695
52	0xbd850284	-0.064946204
53	0x3cdf2074	0.027237155
54	0x3c873784	0.016505964
55	0xbe4376a1	-0.19088222
56	0xbd0e11cc	-0.03468494
57	0xbd400575	-0.046880204
58	0x3ca09ba1	0.01960546
59	0x3ce0e998	0.027455136
60	0x3c624430	0.0138102025
61	0xbe6f324d	-0.23359032
62	0xbe1254c1	-0.14290144
63	0xbd46ec20	-0.04856503
64	0xbb2f445a	-0.0026743622
65	0xbce47663	-0.027888482
66	0xbc4a64ef	-0.012353166
67	0xbd3fefde	-0.046859615
68	0xbd015b5b	-0.031581264
69	0x3c7b5db1	0.015342162
70	0xbc9b9b98	-0.018995091
71	0x3bb7af93	0.005605647
72	0xbcad090e	-0.021122482
73	0xbd502d47	-0.05082443
74	0xbc736515	-0.014855643
75	0xbe852adc	-0.26009262
76	0xbca7ffe0	-0.020507753
77	0xbe2586bc	-0.16164678
78	0x3d1f97bf	0.038963076
79	0x3cc75dc4	0.024336703
80	0xbd0eb0f4	-0.034836724
81	0xbd51909d	-0.051163305
82	0xbe38487c	-0.179964
83	0x3cf73fcd	0.03018179
84	0xbd86d3ab	-0.06583341
85	0xbd0f68d3	-0.035012078
86	0x3c721b56	0.014777025
87	0x3d1e7f1c	0.03869544
88	0xbe1caafd	-0.15299602
89	0xbe7f1778	-0.24911296
90	0xbe60e816	-0.21963534
91	0xbd9b0a0e	-0.07570277
92	0xbe0ea397	-0.13929592
93	0x3cf063fd	0.029344553
94	0xbe49cc00	-0.19706726
95	0xbe4587eb	-0.1929013
96	0xbdea7d9a	-0.11449738
97	0xbdd093cc	-0.1018444
98	0xbd89e4bd	-0.067330815
99	0xbe0eee28	-0.13958037
100	0xbe2d5f35	-0.1693085
101	0x3d5ad5d1	0.053426567
102	0xbeb0aa5d	-0.34504977
103	0xbe87e557	-0.2654216
104	0xbc1556f4	-0.0091149695
105	0x3d046f34	0.032332614
106	0xbe8eda06	-0.27900714
107	0xbba1be3f	-0.004936009
108	0xbdb23d13	-0.08703055
109	0xbd9596a7	-0.07304125
110	0xbdf15099	-0.11782951
111	0x3d168129	0.03674427
112	0xbd00c4a2	-0.031437524
113	0xbd5db9ff	-0.054132458
114	0xbcd4e6c0	-0.025988936
115	0xbe2bca89	-0.1677648
116	0x3c8c5689	0.017131107
117	0x3aca81cd	0.0015450061
118	0x3c90e984	0.017689474
119	0x3d759f84	0.05996658
120	0xbd8d8d33	-0.06911697
121	0xbd501215	-0.050798494
122	0x3c51f77f	0.012815355
123	0x3d047cff	0.032345768
124	0xbe24f476	-0.1610888
125	0xbad78ab9	-0.0016444541
126	0x3c99c5ca	0.018771071
127	0xbd55c5f1	-0.052190725
128	0xbe157c4c	-0.14598197
129	0x3b8dee9d	0.0043314234
130	0xbe83319c	-0.25623786
131	0x3d074a56	0.033029877
132	0x3c16dcf7	0.009207956
133	0xbd12273a	-0.03568194
134	0xbd04251e	-0.03226196
135	0xbecbf9b1	-0.39838937
136	0x3ca7eec0	0.020499587
137	0x3ca21660	0.01978606
138	0xbca74977	-0.020420773
139	0x3caab3fd	0.020837778
140	0x3d099e95	0.0335985
141	0x3d0d0bb9	0.034435008
142	0xbdf6e0a8	-0.120545685
143	0xbb3dbe05	-0.0028952372
144	0xbb9f3c25	-0.0048594647
145	0xbe3a0b28	-0.18168318
146	0xbd69602c	-0.056976482
147	0xbc57eb2f	-0.013178631
148	0x3c41ec07	0.011836058
149	0xbeaa32d8	-0.33241916
150	0x3b622986	0.0034509613
151	0xbe67e35e	-0.22645327
152	0xbb05cfd8	-0.0020418074
153	0x3be19ddd	0.006885274
154	0xbe776d9a	-0.24162903
155	0x3cf91047	0.03040327
156	0x3d150d0b	0.036389392
157	0x3bc0061c	0.0058601033
158	0xbe717369	-0.23579182
159	0xbe214953	-0.15750627
160	0xbdd690b2	-0.10476817
161	0x3b6f13fb	0.0036480415
162	0xbe4619fc	-0.1934585
163	0xbd6de5f4	-0.05808063
164	0x3bf72168	0.007541824
165	0xbe236a6d	-0.15958567
166	0x3d9455e5	0.072429456
167	0xbe34e371	-0.17664887
168	0xbe89b3be	-0.26894945
169	0xbeaf5fdb	-0.3425282
170	0x3d2f6a67	0.042826083
171	0xbd50beb8	-0.050963134
172	0x3cd96a07	0.026539816
173	0x3d78b844	0.060722604
174	0x3d3aff19	0.045653436
175	0x3c0f1d5f	0.00873503
176	0xbd615ecd	-0.05502205
177	0xbb2a9ccf	-0.0026033407
178	0xbc2c9d28	-0.010535516
179	0xbdf444ce	-0.11927186
180	0xbceaa8a0	-0.02864486
181	0xbc009c79	-0.007849806
182	0xbe22939f	-0.15876625
183	0xbb761a39	-0.003755225
184	0x3d07583c	0.03304313
185	0xbcde402d	-0.02713021
186	0xbdf1fb60	-0.11815524
187	0x3d239e1b	0.039945703
188	0xbe7d16d2	-0.24715737
189	0x3ad640f9	0.0016346268
190	0xbdd2acc4	-0.10286859
191	0xbe5dd3e6	-0.21662864
192	0x3cf66d4e	0.030081417
193	0x3c6e0102	0.0145266075
194	0x3cc77e8a	0.02435233
195	0x3c635c24	0.0138769485
196	0xbd8310c7	-0.063996844
197	0x3d314206	0.043275855
198	0xbeac9ce0	-0.33713436
199	0xbc542276	-0.012947669
200	0x3c1ecfcb	0.009693096
201	0xbe935d9c	-0.28782356
202	0x3d77319f	0.060350057
203	0xbe4c8501	-0.19972612
204	0x3c3b4f37	0.0114324605
205	0xbc6f2f03	-0.014598611
206	0xbe4b10c9	-0.19830622
207	0x3c99349b	0.018701842
208	0xbdb2462f	-0.08704793
209	0xbaf7097c	-0.0018847431
210	0xbe0acb5f	-0.13554142
211	0x3c233301	0.009960891
212	0xbced5c0f	-0.028974561
213	0x3ce5b779	0.028041588
214	0x3ad1acf3	0.0015996977
215	0x3d4c0cc6	0.04981687
216	0xbdbdb0eb	-0.0926226
217	0xbd4fa6c1	-0.05069614
218	0x39a8de1c	0.0003220894
219	0xbdcc8f0e	-0.09988223
220	0x3c28097a	0.010256166
221	0xbd5998ba	-0.053124167
222	0x3b844fd5	0.004037837
223	0xbe36c3eb	-0.17848174
224	0xbba6e3ac	-0.0050930586
225	0xbceb3c81	-0.028715374
226	0xbd53b2a2	-0.05168403
227	0xb9a1fcd7	-0.00030896693
228	0xbe490633	-0.19631271
229	0xbd25415a	-0.040345527
230	0x3d1f1809	0.03884128
231	0xbd770a57	-0.060312595
232	0xbc3fdd93	-0.011710542
233	0xbe943f86	-0.28954715
234	0xbbded346	-0.006800088
235	0xbd9a65d9	-0.07538957
236	0x3aaddfa4	0.0013265503
237	0xbe36a98e	-0.17838117
238	0xbc46ff39	-0.012145811
239	0xbcbe1a15	-0.023205796
240	0x3dce7b8e	0.1008216
241	0x3c6d95f5	0.014501085
242	0x3c572dcf	0.01313348
243	0xbb51b104	-0.0031996379
244	0xbd0ffd0c	-0.035153434
245	0x3c3dd9a4	0.011587534
246	0xbe287ceb	-0.16453902
247	0xbe548563	-0.20754008
248	0x3d2e8904	0.042611137
249	0xbd158c8c	-0.03651099
250	0x3dc51dc3	0.09624817
251	0x3c217bf6	0.009856215
252	0x3ac5750e	0.0015064792
253	0x3cdee0c2	0.027206782
254	0xb9e6d391	-0.00044026648
255	0xbe65805a	-0.22412243
