model/mnist_cgan_01_discriminator_epoch00.pt (torch, 817095 bytes, 3 tensors)

network.0.weight f4 [256, 794]
000000 77 5b 85 bc 79 55 c8 3c e9 ff 3b 3d 8c 6b 7e 3c
       -0.016278965 0.024454819 0.04589835 0.015528571
000010 9f bb 81 3d 67 67 12 bd bb 60 b4 3c 6f b1 99 bc
       0.06334614 -0.035743143 0.022018781 -0.018761365
000020 46 b6 b3 3b 24 6d 14 3d 3a b1 4e bd 8a 04 07 bd
       0.005484375 0.036236897 -0.050461985 -0.032963313
000030 2e 7c 25 3d c1 cf 5c bc 8c 8c 12 bd dd e9 dd bb
       0.04040163 -0.013477267 -0.035778567 -0.0067722634
000040 94 93 ec 3d b2 3b 5b bc 9f 3f 54 3d 22 7f aa 3d
       0.11551586 -0.013380932 0.051818486 0.0832503
000050 6d 16 52 3d b7 80 3d bc c5 00 bb bc 29 bf 05 3d
       0.05129092 -0.011566333 -0.022827515 0.032653008
000060 e3 80 22 bd 35 9a 83 3d 59 05 b7 bc 68 0b 90 3d
       -0.039673697 0.06425897 -0.022341417 0.070334256
000070 28 1e 40 3d c4 a2 7c 3c a3 50 8d 3d 83 4f 9a 3d
       0.04690376 0.015419666 0.06900146 0.07534697
000080 e9 c6 36 bd c0 8b dd bb 52 db 79 3c f5 d0 ed 3c
       -0.04462329 -0.0067610443 0.015250044 0.029030303
000090 21 7e 41 3c 73 f4 18 3d da d9 c3 3c 47 53 c3 3d
       0.011809857 0.0373425 0.02390759 0.09537368
0000a0 24 29 97 3d 0b 4d 1d 3d f5 93 2a bd ab 71 1d bd
       0.07380894 0.038403552 -0.04164501 -0.03843848
0000b0 9d 4b 9c 3a 61 e7 7f bc 31 93 11 bc b2 ec f4 bb
       0.001192439 -0.01561913 -0.008885191 -0.0074745053
0000c0 ed a1 29 3c c6 0e 92 3d f4 97 68 3d e1 fc 31 bd
       0.0103535475 0.07131724 0.05678554 -0.043454055
0000d0 45 f9 86 3d 3f 73 4b bd 75 ac 89 bc 71 02 8d 3d
       0.06590513 -0.049670454 -0.016805867 0.06885231
0000e0 3a 6e 6e 3c a0 0d af 3b e6 ad bb 3c 03 9a 7f 3b
       0.014552647 0.0053422004 0.02291007 0.003900171
0000f0 43 d9 ae 3c f2 d7 e6 3c 01 9e 99 3d b9 bc 6e bc
       0.021343833 0.028179143 0.0750084 -0.014571362
000100 db f6 8f 3c 3d 68 27 3d bc 4b 1d 3a 32 8e cd bc
       0.017573765 0.040870894 0.000600036 -0.025092218
000110 e6 e6 ed 3a e3 88 4b 3d 2b 8f aa bc e5 84 2c bc
       0.0018150478 0.049691092 -0.020820221 -0.010529731
000120 80 e6 15 3c b9 97 0b 3d b6 d0 d6 3a 92 35 13 3d
       0.009149194 0.03408024 0.0016389105 0.03593976
000130 f7 54 2a 3d 14 e4 a0 3c a6 41 b9 3c 1f d3 10 bc
       0.041584935 0.019640006 0.022614311 -0.008839398
000140 5c 4e a3 3c 86 86 73 bc 56 4b 84 3a 66 3b ba 39
       0.019934826 -0.014863616 0.0010093253 0.0003552094
000150 12 7c ac 3d 8e c8 97 3d 3d 97 b8 3c 63 2b a6 bb
       0.08422102 0.074113 0.022533054 -0.00507109
000160 5a 9e 15 3d 68 c6 f7 3c ac 52 83 3c 02 a8 13 3d
       0.03652797 0.030245975 0.016030632 0.036048897
000170 18 c9 08 3d 4b af 87 3d e7 c3 8c 3d 67 f8 c3 3c
       0.033394903 0.06625231 0.06873303 0.023922158
000180 a8 f3 41 3d 5e 0a 28 3d 10 b0 26 bb 9f 3c a5 b9
       0.04735151 0.041025512 -0.0025434531 -0.0003151642
000190 5a e6 51 3c 00 25 a2 bc f9 e8 b2 3d 4c 75 a2 3d
       0.012811268 -0.019793034 0.08735842 0.07932529
0001a0 66 43 e3 3c e6 59 7f 3d ef ee 17 3c f4 a5 ae 3c
       0.027742099 0.062341593 0.009273275 0.021319367
0001b0 2c c1 69 3c 76 ba 02 3d 7e d0 ad 3c 9c 47 dd 3c
       0.014267247 0.031916104 0.02121758 0.027011685
0001c0 ff 61 02 3d a6 8e 81 bd 2f a2 81 ba a0 88 a3 3d
       0.031831738 -0.06326036 -0.0009890253 0.079850435
0001d0 30 9f 4b 3d 0e 95 f2 bb 81 b3 af 3d ab ec 8c 3c
       0.04971236 -0.0074030226 0.085791595 0.017202696
0001e0 5d ac d7 3b 8f 66 21 bd f6 30 c7 3c b7 36 8e bc
       0.0065818266 -0.039404448 0.024315339 -0.017360074
0001f0 07 bd eb bc bb 29 ab 3c 3c 4a 8e 3c 80 99 60 bd
       -0.028776659 0.020893922 0.017369382 -0.05483389
000200 65 b3 25 3b 94 8b cf bd f0 bc a8 bc 9a d9 2e bd
       0.002528393 -0.10134044 -0.020597905 -0.04268799
000210 7e 4f a2 3d 61 8f c4 3c 08 ad 80 3d b1 d1 3d bd
       0.07925318 0.02399415 0.06283003 -0.046342555
000220 39 53 ac 3c fb 47 e9 bb 03 9a 56 3c f3 f0 84 ba
       0.021035777 -0.0071191764 0.013098243 -0.0010142609
000230 21 27 2a bd e6 d3 0d 3d 3f 42 11 bc 2e e7 05 3d
       -0.041541222 0.03462591 -0.008865892 0.032691173
000240 d7 fa 08 3d bc 4a 1d 3d d4 33 b8 3b d9 40 86 3d
       0.033442345 0.03840135 0.005621413 0.065553375
000250 48 6d 16 3d 2e 52 fb 3c 1a 94 e9 bb 92 bc b7 bc
       0.036725312 0.030678835 -0.007128251 -0.022428785
000260 f0 11 0a 3c 02 b5 86 3c da ff 08 3d d8 b0 72 3d
       0.008427128 0.016443733 0.033447124 0.059250683
000270 64 f7 0b bd bc 23 02 bc ea d7 b8 3d 70 97 75 bd
       -0.034171477 -0.00794309 0.09025557 -0.059958875
000280 98 e0 86 3c f8 22 d0 bc 48 ce 9b 3d d6 26 3c bd
       0.016464517 -0.0254073 0.076077044 -0.045935474
000290 aa 0c e9 bc 18 82 b9 3d 2a f4 82 bd a9 b3 aa 3b
       -0.028448422 0.090580165 -0.06394227 0.0052094054
0002a0 9d 77 7c 3d c8 73 04 bc 91 ca 1e 3d 02 56 ad bc
       0.06163751 -0.008084245 0.0387674 -0.021159176
0002b0 4b 3b 6b 3d 56 8c 07 bd 8a 47 ab 3d 2f 57 7d 3d
       0.057429593 -0.03309282 0.08363254 0.061850723
0002c0 c3 df 8e 3c b8 66 88 3b 9f f2 aa 3b 77 3e 35 3d
       0.017440682 0.0041626357 0.005216911 0.044249024
0002d0 66 7c fe 3a fd 89 2d 3e 64 f6 1d be 16 21 8f 3d
       0.0019415736 0.1694717 -0.15426022 0.069887325
0002e0 8b 45 0e 3d b1 59 13 3c 29 91 f1 bc da cd e7 3d
       0.03473429 0.008993552 -0.029488163 0.1131856
0002f0 93 86 15 3d 3e 35 e4 3a 18 df 50 bd b2 97 e7 3c
       0.036505293 0.0017410887 -0.05099401 0.028270576
000300 88 ca 2b 3d 71 86 93 3d d4 60 ce 3d 30 ec f4 bc
       0.041941196 0.07203377 0.10077062 -0.02989778
000310 32 ba 87 3c dd 24 7d 3d 6c 4a aa 3b df 12 85 3d
       0.016568277 0.061802734 0.00519686 0.0649774
000320 4b eb 97 bc 17 32 7a bd 68 f4 c4 3d 21 fb bc 3d
       -0.018544814 -0.061082926 0.09616929 0.092275865
000330 b8 f8 b2 bc ec 1a 22 3b 00 92 01 3d da f3 60 bd
       -0.021847114 0.0024735285 0.031633377 -0.054920055
000340 ab 7e 48 bd 0a 35 66 3d fa e0 0a be 9b 21 ec 3d
       -0.048948925 0.056202926 -0.13562384 0.11529847
000350 9f d6 84 3d 48 f8 17 be 1c 85 a2 bc 59 bb 5d bd
       0.06486248 -0.14840806 -0.019838862 -0.054133747
000360 ce 4d 1f 3d ce 10 d6 3c 0c f1 92 3d 98 4b 7c 3d
       0.03889256 0.02613106 0.07174882 0.06159553
000370 57 34 b9 3b f0 5a 19 bc 2f 10 8e 3d 71 a6 9c bc
       0.0056519913 -0.00936006 0.069366805 -0.019122334
000380 c9 9b c6 bc a0 a6 90 3c c9 cb df 3b 5b f5 09 3d
       -0.024244206 0.017657578 0.006829713 0.033681255
000390 33 30 b3 bc 34 6e b6 3b 9b 5e dc bc eb 8d cf bd
       -0.02187357 0.0055673365 -0.02690058 -0.101344906
0003a0 21 3c fd 3d 99 42 1c bc df 96 4a 3d 76 af 12 bd
       0.12364984 -0.0095373625 0.049460288 -0.035811864
0003b0 aa 86 d1 3c 35 ef 24 bc fa 1d c4 ba cc 4e e0 bd
       0.025576908 -0.010066797 -0.0014962547 -0.10952529
0003c0 41 f9 33 3d b5 5d d6 ba 03 ed d0 3b f8 71 3a 3c
       0.04393888 -0.0016354831 0.0063759102 0.011379711
0003d0 5c e4 2b 3d b9 c0 3a bb fc 14 2e bd 6d 20 68 3c
       0.041965827 -0.002849622 -0.04250048 0.014167887
0003e0 4b 76 15 3b 55 d8 d5 3c 88 f8 1e bc 73 6e 40 39
       0.0022806104 0.026104132 -0.009702809 0.00018351692
0003f0 f9 fd ed 3c 5b 85 45 bb 17 9a 10 bd ad c0 d3 bc
       0.029051768 -0.00301393 -0.0353032 -0.02584871

network.0.bias f4 [256]
000000 cf 16 b1 3e 65 4b 88 3e c9 86 71 3e 37 f4 c0 be
       0.34587714 0.2662002 0.23586573 -0.3768632
000010 0a 24 9e 3e 33 a4 5f 3c 8d b6 af 3e c6 03 cf 3e
       0.3088687 0.013649988 0.34318963 0.40432566
000020 be 4f aa bc bf 6c e4 3e b3 60 b2 bc d9 da 72 3e
       -0.020789977 0.44614217 -0.021774625 0.23716296
000030 06 fc 89 3e ca ea 7c 3e e7 68 8b bb 25 78 1a be
       0.2695009 0.2469894 -0.0042544487 -0.15084894
000040 2e 00 b6 be 65 46 c8 3e 9f 1d a4 3e 57 da 5f bd
       -0.35547012 0.39116207 0.3205385 -0.054651584
000050 c4 b5 e3 3e 63 26 44 3e d1 f4 0e 3e 25 9e 84 be
       0.44474614 0.19155268 0.13960578 -0.25901905
000060 79 1b cb 3e 60 5d 11 3b 28 c7 72 be 6e ab 51 3e
       0.39669397 0.00221809 -0.23708785 0.20475551
000070 08 56 a8 3e b2 89 a6 3e 6c 3b 99 3e 4c 5b 5a bc
       0.32878137 0.32526928 0.29928148 -0.013327431
000080 e1 4e 68 be 37 68 d3 bc d7 c7 d0 3e 5c 14 5d 3e
       -0.2268634 -0.02580653 0.40777466 0.21589798
000090 df b5 74 3e 62 a0 8e 3e 81 ed 9a 3e 6f 71 ec 3e
       0.23897503 0.27856737 0.30259326 0.46180293
0000a0 2d 62 83 3e 53 eb 9c 3e da 0a 5c 3e 2b 37 89 bd
       0.2566084 0.30648288 0.21488515 -0.066999756
0000b0 0d 5a ee bc 93 3f 83 3e bc 72 01 3c 7a bd 3f be
       -0.029095674 0.2563444 0.00790089 -0.18724623
0000c0 fb 79 44 bd f6 a9 91 3e 6d d6 21 bd 12 5e 87 3e
       -0.047967892 0.28449982 -0.039511133 0.26438957
0000d0 eb 20 78 3e 7a 50 19 bd ae dc be be a5 fa 5e 3e
       0.24231307 -0.037430264 -0.3727774 0.21775301
0000e0 0e 7d e8 bd 8b 70 e6 bc bd 4f 65 bd 6e 0f 07 bd
       -0.11351977 -0.028129837 -0.055984247 -0.0329737
0000f0 c5 c4 98 3e fd 9c a8 3e 1c 58 1c 3e ea 06 d0 3e
       0.29837623 0.32932273 0.15267986 0.40630275
000100 85 22 97 3e 64 cf ba bc d8 91 9e 3e ea 4c 30 3e
       0.29518524 -0.02280397 0.30970645 0.1721684
000110 b6 ee 31 bb a7 d6 10 bd af ae a3 3e 8e 62 49 bd
       -0.002715034 -0.03536096 0.3196921 -0.049166255
000120 63 5b af 3e 48 34 c6 3d 54 fd 44 be a8 c6 bb 3e
       0.3424941 0.096779406 -0.19237262 0.36675
000130 84 2e 6d bc a1 2f 48 3e ef 57 33 bc b6 e2 a8 3a
       -0.014476422 0.19549419 -0.010946258 0.0012884948
000140 de ac c3 3e e9 62 bc bc c8 6b c2 3e 4f 05 4b 3c
       0.38217825 -0.022996383 0.37972856 0.012391402
000150 79 b3 4c 3e 71 f8 84 bd 02 51 1f bd 9e 6b 73 3b
       0.19990338 -0.06492699 -0.038895614 0.0037143002
000160 b4 d5 19 3e d8 43 be 3e ac e4 94 3e 34 be 96 3e
       0.15022928 0.37161136 0.29080713 0.29441988
000170 38 9d 43 3e 22 67 f5 bc e1 7a 9b 3e a3 2e 71 3e
       0.19102943 -0.029956404 0.30367187 0.23552947
000180 c5 c1 22 3e 37 13 8d 3e 41 4b 56 3e ff 79 84 3e
       0.1589423 0.27553722 0.20927145 0.25874326
000190 b1 c7 9e 3e 5e b6 c2 3e 6c d3 a2 3e af 6d 16 3e
       0.31011727 0.3802976 0.31801927 0.14690278
0001a0 72 99 a6 3e 6e e6 1c 3c b9 8e c6 3e 31 4f 74 be
       0.32538944 0.009576423 0.38780764 -0.23858334
0001b0 5a 92 57 3e d7 45 d9 3d eb dc 7b 3e 57 1a 46 bc
       0.21051922 0.10609024 0.24595992 -0.012091241
0001c0 49 e2 87 3e dd 61 74 3d cf aa 59 3e d6 45 c5 3e
       0.2653983 0.059663642 0.21256565 0.38529843
0001d0 eb 32 77 bd e7 2b a6 bc de 45 d1 be ca bb b5 3e
       -0.060351294 -0.020284606 -0.40873617 0.35494834
0001e0 df bd 9c bc 37 b0 62 3e ba 53 f7 3d 36 f5 fb bc
       -0.019133506 0.22137533 0.120765164 -0.030756574
0001f0 db f0 a6 3e a5 dd 94 be e7 a8 18 be 69 0c 2d 3e
       0.32605633 -0.2907535 -0.14908181 0.16899265
000200 40 6d bc 3e a2 99 e4 bc f1 a2 a1 3e d7 63 e9 bc
       0.368021 -0.02790529 0.31569627 -0.02848999
000210 07 50 bb 3e 83 a0 2f be 92 fc 34 3c 07 b9 39 3e
       0.36584494 -0.17151074 0.011046546 0.18136989
000220 c0 8c 4a be 80 17 3d bd 29 4e f6 3c 01 0b 8a 3e
       -0.19780254 -0.04616499 0.030066567 0.2696152
000230 0f d7 c1 bc 6a a9 f3 3b ba a8 ca 3e 8a f2 a3 3b
       -0.023662118 0.007435967 0.39581853 0.005003278
000240 48 a7 b1 3c a7 df cf 3e af a6 d3 bc b7 0d 96 3e
       0.021686211 0.4060032 -0.025836317 0.2930734
000250 18 d6 bb be 0a b7 a4 3e d3 94 34 bc 27 5e 94 3e
       -0.36686778 0.32170898 -0.011021811 0.28978083
000260 f9 97 92 3e 04 6f fd bc 2a 3f c5 3e a9 71 d0 bc
       0.2863157 -0.030936725 0.38524753 -0.025444822
000270 8a e3 29 bd 35 c4 35 bd 1a 7c be 3e 20 00 90 3e
       -0.041476764 -0.04437657 0.37204057 0.28125095
000280 28 24 1f 3e 4b cf 71 bd fa 75 c8 3e e5 24 9b 3e
       0.15541136 -0.05903558 0.3915251 0.30301586
000290 a6 0b 92 3e bc 96 a5 3e e1 be b0 3e e3 61 a9 3e
       0.28524512 0.32341564 0.3452063 0.33082494
0002a0 4d c9 93 3e db 97 e5 3e e9 33 df bb b2 b0 3b 3d
       0.28864518 0.4484242 -0.006811608 0.045822807
0002b0 49 65 1c be d7 bd 8f 3e cb 31 30 bd 88 51 a1 3e
       -0.15273012 0.28074524 -0.043016236 0.31507516
0002c0 90 3b 65 3e b3 e5 93 bd 28 f1 5b be e5 2f 48 3e
       0.22386003 -0.07221546 -0.21478713 0.1954952
0002d0 b6 ff c5 3e c4 0f 95 bb 96 9d 28 3e cb 08 c3 3e
       0.38671654 -0.0045489985 0.16466364 0.38092646
0002e0 35 cb 8a 3b d7 1e 98 3e ff 5d af 3e 8f 81 27 bd
       0.00423565 0.2971103 0.342514 -0.04089504
0002f0 6a 8e 84 3e 35 e1 f2 bb 6e 57 4b 3e a5 dd 94 3e
       0.25889903 -0.0074121007 0.1985757 0.2907535
000300 4b 9d d2 3a 98 b2 bf be 84 e8 d3 3a 38 3c dd ba
       0.0016068605 -0.37440944 0.0016167318 -0.0016878909
000310 3b a2 06 bd b2 82 de be 16 ed cc 3e 7e da f8 bd
       -0.03286956 -0.43459088 0.40024632 -0.12151049
000320 fb 59 b3 ba 23 f3 7b 3e 31 e6 34 3e 90 55 cd 3e
       -0.0013683432 0.24604468 0.17665936 0.40104342
000330 c8 2d 4c 3b e7 72 0b bd 7d d5 a7 3e 32 6c 16 bd
       0.0031155217 -0.034045126 0.32780066 -0.036724277
000340 3b 3c cc 3e 36 2a c9 bc 21 16 aa 3e 57 51 87 3e
       0.39889702 -0.02455626 0.33220008 0.26429245
000350 a6 ae f8 bb 49 6d f9 ba ee d5 b4 bc 8b d2 3e 3c
       -0.007589179 -0.0019029762 -0.022074666 0.011646877
000360 01 fa 25 3e c1 cb 8b 3e 28 34 dd bd 65 e4 d7 3d
       0.1620865 0.2730389 -0.10800964 0.1054161
000370 b9 7f 68 bd fd bd 4b 3e d5 fd 83 bd 1a ae 9b 3e
       -0.05676243 0.19896694 -0.06444899 0.30406266
000380 a0 af 5d be 43 cc 30 bc 11 77 fb bd 9c 60 83 bc
       -0.21649027 -0.010790887 -0.122785695 -0.016037278
000390 18 92 c7 3e 3b b3 ae 3e 74 82 39 bd b1 05 e9 3e
       0.38978648 0.34121117 -0.045290425 0.45512155
0003a0 c8 b6 fe bb b9 09 66 3e fb 25 6c be 26 05 b1 bd
       -0.007773254 0.22464646 -0.23061363 -0.0864356
0003b0 01 16 83 3e 60 18 69 3e 0a 2d 40 3b e6 b5 53 3e
       0.25602725 0.22763205 0.002932372 0.20674857
0003c0 0b e6 d6 3e 10 4d 8f bc 02 04 31 bd cf 96 e8 bc
       0.41972384 -0.017492801 -0.043216713 -0.028392224
0003d0 bf 67 43 3d 6a 4d ff bc bc 82 91 3e aa ce 92 3e
       0.04770636 -0.031164844 0.28420055 0.28673297
0003e0 36 82 35 3e 19 7f cb 3e 27 fc 87 3e b0 e6 fa bc
       0.17725453 0.39745405 0.26559564 -0.030627578
0003f0 1c 60 15 3d 4d 9b 46 bd b1 23 37 3b 6a 61 bf bd
       0.03646861 -0.04848795 0.0027944858 -0.09344752

network.2.weight f4 [1, 256]
000000 51 8c 6e be 4f d6 fb bd 76 3d cd bd 97 3a a3 3d
       -0.23295714 -0.122967355 -0.10021488 0.079701595
000010 52 c4 29 be 0d 9e 68 bd 9f 2b 42 be f8 52 79 be
       -0.16578797 -0.056791354 -0.18961953 -0.24348056
000020 01 2f 11 3d 55 1d 47 be 69 02 3a bd cb d1 31 bd
       0.035445217 -0.19444783 -0.045412455 -0.043412965
000030 cb 57 6c be ba ee ab bd 63 06 34 3d 22 ac 00 3d
       -0.23080365 -0.08395143 0.043951403 0.03141416
000040 b8 e9 78 3d 2b d1 6a be 68 21 27 be e6 74 0d bd
       0.060769767 -0.22931354 -0.16321337 -0.03453531
000050 96 ce b7 be e3 43 6b bd ff d4 35 be 80 58 5e 3d
       -0.358998 -0.05743779 -0.17757033 0.05428362
000060 c5 a4 dc bd 20 62 69 3c bb 8b 99 3d ee 42 44 be
       -0.10773615 0.014244586 0.074973546 -0.19166157
000070 66 5a 0b be c7 e7 59 be 55 6d ce bd 3f 99 e9 3c
       -0.13608703 -0.21279822 -0.10079447 0.028515456
000080 fc ea 89 3d 3b bd c2 bb 94 c4 26 be 97 0c d9 bd
       0.06734273 -0.005942968 -0.16285926 -0.105981044
000090 41 be 53 bd 06 c2 ac bc fa 4c 71 be 52 e3 e4 be
       -0.051695112 -0.021088611 -0.2356452 -0.44704682
0000a0 98 a6 ea bd 42 9d 44 be ee 05 2b bd 49 30 8f 3d
       -0.114575565 -0.19200614 -0.041753702 0.069916315
0000b0 15 72 1b 3d b7 6c 69 be 32 ad c4 3b b3 6c b5 3c
       0.037950594 -0.22795378 0.006002092 0.022146558
0000c0 d3 08 1d 3b 2b 27 57 bd ba a5 df 3c 93 cd 6d be
       0.0023961558 -0.052527588 0.027300704 -0.23222952
0000d0 84 02 85 bd 74 20 df 3c 46 7f 9f 3d 9f 6a 43 be
       -0.064946204 0.027237155 0.07787947 -0.19083641
0000e0 5d b3 c3 3c 75 05 40 bd a1 9b a0 3c 98 e9 e0 3c
       0.023889238 -0.046880204 0.01960546 0.027455136
0000f0 5f 36 48 bd 4d 32 6f be 8f 54 12 be 2a 24 88 be
       -0.048879977 -0.23359032 -0.14290069 -0.2659009
000100 65 29 e7 bc 63 76 e4 bc 16 b6 0b be e6 6b 03 be
       -0.02821798 -0.027888482 -0.13643679 -0.12834129
000110 5b 5b 01 bd b1 5d 7b 3c 74 a5 1a be 93 af b7 3b
       -0.031581264 0.015342162 -0.15102178 0.005605647
000120 28 d3 c5 bd 47 2d 50 bd 7f 70 47 3d 30 3c b1 be
       -0.096594155 -0.05082443 0.04869127 -0.34616232
000130 e0 ff a7 bc bc 86 25 be bf 97 1f 3d c4 5d c7 3c
       -0.020507753 -0.16164678 0.038963076 0.024336703
000140 ea ad a8 be 9d 90 51 bd d9 3a 8c be cd 3f f7 3c
       -0.32945186 -0.051163305 -0.27388647 0.03018179
000150 46 a7 04 be 44 da 43 3b 56 1b 72 3c 1c 7f 1e 3d
       -0.12954435 0.0029884735 0.014777025 0.03869544
000160 fd aa 1c be 02 57 3b be 16 e8 60 be 2d fc 93 bd
       -0.15299602 -0.1829491 -0.21963534 -0.07225833
000170 97 a3 0e be fd 63 f0 3c 3d d1 49 be eb 87 45 be
       -0.13929592 0.029344553 -0.19708724 -0.1929013
000180 9a 7d ea bd 14 1b 3e be bd e4 89 bd 28 ee 0e be
       -0.11449738 -0.18565017 -0.067330815 -0.13958037
000190 35 5f 2d be 03 16 83 be 1a 54 6d be cf bf f3 bd
       -0.1693085 -0.2560273 -0.23176613 -0.11901819
0001a0 a4 e8 1f be 34 6f 04 3d 71 a4 90 be a0 6c 91 3d
       -0.15616089 0.032332614 -0.2825046 0.07100797
0001b0 00 3d b2 bd a7 96 95 bd 99 50 f1 bd 29 81 16 3d
       -0.08703041 -0.07304125 -0.11782951 0.03674427
0001c0 9e 97 3d be ff b9 5d bd a4 d8 d4 bc 8d d9 19 be
       -0.18514869 -0.054132458 -0.025982209 -0.15024395
0001d0 89 56 8c 3c cd 81 ca 3a 18 fa 90 3d 44 67 1a be
       0.017131107 0.0015450061 0.070789516 -0.15078455
0001e0 33 8d 8d bd c9 0c 50 bd 3c 87 50 be ff 7c 04 3d
       -0.06911697 -0.050793443 -0.20364088 0.032345768
0001f0 76 f4 24 be ba f2 70 3d ba 99 9f 3c c1 7b 21 be
       -0.1610888 0.058825232 0.019482482 -0.15769865
000200 b0 8f 13 be 9d ee 8d 3b b6 c6 1f be 56 4a 07 3d
       -0.14410281 0.0043314234 -0.15603146 0.033029877
000210 ce b8 99 bd ad 04 18 3d 35 24 04 bd aa cc 29 be
       -0.07505952 0.037113834 -0.032261092 -0.1658198
000220 02 e4 0d 3d 60 16 a2 3c 00 2b a7 bc 0c c5 5b be
       0.034641273 0.01978606 -0.020406246 -0.21461886
000230 95 9e 09 3d b9 0b 0d 3d b6 16 eb be bf 1b 34 bc
       0.0335985 0.034435008 -0.45915765 -0.010992943
000240 25 3c 9f bb d4 1a 6a be 2c 60 69 bd eb 68 9c bd
       -0.0048594647 -0.22861797 -0.056976482 -0.07637199
000250 ce 26 96 3d f1 0c ab be 86 29 62 3b 37 f1 93 bd
       0.0733162 -0.3340831 0.0034509613 -0.072237425
000260 dc 6a 19 be dd 9d e1 3b 09 2f 15 be 47 10 f9 3c
       -0.1498217 0.006885274 -0.14568724 0.03040327
000270 0b 0d 15 3d 1c 06 c0 3b 69 73 71 be 06 be 20 be
       0.036389392 0.0058601033 -0.23579182 -0.15697488
000280 b2 90 d6 bd 2c 99 b8 3d 99 72 4a be 66 a8 d7 bc
       -0.10476817 0.0901359 -0.19770278 -0.026325416
000290 0a d3 1c be 5f 6a 23 be 52 48 1e be 71 e3 34 be
       -0.1531488 -0.15958546 -0.15457276 -0.17664887
0002a0 bf 91 96 be 6b f2 9e be 67 6a 2f 3d 9e bd 50 bd
       -0.2940807 -0.31044325 0.042826083 -0.050962083
0002b0 5d e1 1e 3d 7f f8 97 be 19 ff 3a 3d a2 27 87 be
       0.038789142 -0.29681775 0.045653436 -0.26397425
0002c0 cd 5e 61 bd f8 16 ec 3b 2d d5 4e 3d 4f 44 f4 bd
       -0.05502205 0.0072048865 0.05049627 -0.11927091
0002d0 6d d6 57 be 31 0f b7 bc 9f 93 22 be 09 e2 50 be
       -0.2107789 -0.022346111 -0.15876625 -0.20398726
0002e0 3c 58 07 3d c7 80 12 be 59 e3 96 be 1b 9e 23 3d
       0.03304313 -0.14306937 -0.29470327 0.039945703
0002f0 8e 18 7d be f9 40 d6 3a c4 ac d2 bd e6 d3 5d be
       -0.24716398 0.0016346268 -0.10286859 -0.21662864
000300 4e 6d f6 3c be b4 97 3d 8a 7e c7 3c 24 5c 63 3c
       0.030081417 0.07407521 0.02435233 0.0138769485
000310 0c 3d 33 bc 19 13 b5 3d 8c 5c 76 be 80 28 81 3c
       -0.010939848 0.08841533 -0.24058741 0.015766382
000320 cb cf 1e 3c c2 c3 05 be 7b 80 36 be c0 bf 9e be
       0.009693096 -0.13062957 -0.17822449 -0.3100567
000330 37 4f 3b 3c 03 2f 6f bc 64 01 10 be 9b 34 99 3c
       0.0114324605 -0.014598611 -0.1406303 0.018701842
000340 b4 9e 4c be 7c 09 f7 ba 5f cb 0a be 75 1c 31 be
       -0.19982415 -0.0018847431 -0.13554142 -0.17296012
000350 4f 59 ed bc 79 b7 e5 3c f3 ac d1 3a c6 0c 4c 3d
       -0.02897325 0.028041588 0.0015996977 0.04981687
000360 eb b0 bd bd 31 2a 4f bd 8b 42 2a 3c 0e 8f cc bd
       -0.0926226 -0.050577346 0.010391842 -0.09988223
000370 44 bc 28 3c 60 df d7 bd 81 23 84 3c 38 c2 36 be
       0.010298792 -0.10540652 0.01613021 -0.17847526
000380 fe f5 91 3d 81 3c eb bc 6d a2 a2 3c d7 fc a1 b9
       0.071269974 -0.028715374 0.019852841 -0.00030896693
000390 31 54 bb be f2 7d 6f be 09 18 1f 3d 9f 29 83 be
       -0.3658767 -0.23387888 0.03884128 -0.25617692
0003a0 93 dd 3f bc 50 14 e8 bd b7 4f 8a 3c c5 d8 a9 3c
       -0.011710542 -0.11331999 0.016883714 0.020733247
0003b0 a9 fc 36 be ea 40 5e bd 39 ff 46 bc a7 ec 09 be
       -0.1786982 -0.054261126 -0.012145811 -0.13469182
0003c0 4f 56 1e be f5 95 6d 3c cf 2d 57 3c cb 66 1e bb
       -0.15462612 0.014501085 0.01313348 -0.0024170156
0003d0 b1 fb 0f bd a4 d9 3d 3c eb 7c 28 be 63 85 54 be
       -0.03515214 0.011587534 -0.16453902 -0.20754008
0003e0 c1 b5 46 be a8 43 af be 1d 28 72 be f6 7b 21 3c
       -0.19405271 -0.34231305 -0.23648115 0.009856215
0003f0 15 58 07 bd c2 e0 de 3c 91 d3 e6 b9 2e 56 df 3b
       -0.033042986 0.027206782 -0.00044026648 0.0068156933
