model/mnist_cgan_01_discriminator_epoch05.pt (torch, 817095 bytes, 3 tensors)

network.0.weight f4 [256, 794]
-0.016278965 0.024454819 0.04589835 0.015528571 0.06334614 -0.035743143 0.022018781 -0.018761365
0.005484375 0.036236897 -0.050461985 -0.032963313 0.04040163 -0.013477267 -0.035778567 -0.0067722634
0.11551586 -0.013380932 0.051818486 0.0832503 0.05129092 -0.011566333 -0.022827515 0.032653008
-0.039673697 0.06425897 -0.022341417 0.070334256 0.04690376 0.015419666 0.06900146 0.07534697
-0.04462329 -0.0067610443 0.015250044 0.029030303 0.011809857 0.0373425 0.02390759 0.09537368
0.07380894 0.038403552 -0.04164501 -0.03843848 0.001192439 -0.01561913 -0.008885191 -0.0074745053
0.0103535475 0.07131724 0.05678554 -0.043454055 0.06590513 -0.049670454 -0.016805867 0.06885231
0.014552647 0.0053422004 0.02291007 0.003900171 0.021343833 0.028179143 0.0750084 -0.014571362
0.017573765 0.040870894 0.00060003577 -0.025092218 0.0018150478 0.049691092 -0.020820221 -0.010529731
0.009149194 0.03408024 0.0016389105 0.03593976 0.041584935 0.019640006 0.022614311 -0.008839398
0.019934826 -0.014863616 0.0010093253 0.00035520917 0.08422102 0.074113 0.022533054 -0.00507109
0.03652797 0.030245975 0.016030632 0.036048897 0.033394903 0.06625231 0.06873303 0.023922158
0.04735151 0.041025512 -0.0025434531 -0.00031516457 0.012811268 -0.019793034 0.08735842 0.07932529
0.027742099 0.062341593 0.009273275 0.021319367 0.014267247 0.031916104 0.02121758 0.027011685
0.031831738 -0.06326036 -0.0009890253 0.079850435 0.04971236 -0.0074030226 0.085791595 0.017202696
0.0065818266 -0.039404448 0.024315339 -0.017360074 -0.028776659 0.020893922 0.017369382 -0.05483389
0.002528393 -0.10134044 -0.020597905 -0.04268799 0.07925318 0.02399415 0.06283003 -0.046342555
0.021035777 -0.0071191764 0.013098243 -0.0010142609 -0.041541222 0.03462591 -0.008865892 0.032691173
0.033442345 0.03840135 0.005621413 0.065553375 0.036725312 0.030678835 -0.007128251 -0.022428785
0.008427128 0.016443733 0.033447124 0.059250683 -0.034171477 -0.00794309 0.09025557 -0.059958875
0.016464517 -0.0254073 0.076077044 -0.045935474 -0.028448422 0.090580165 -0.06394227 0.0052094054
0.06163751 -0.008084245 0.0387674 -0.021159176 0.057429593 -0.03309282 0.08363254 0.061850723
0.017440682 0.0041626357 0.005216911 0.044249024 0.001941574 0.1694717 -0.15426022 0.069887325
0.03473429 0.008993552 -0.029488163 0.1131856 0.036505293 0.0017410887 -0.05099401 0.028270576
0.041941196 0.07203377 0.10077062 -0.02989778 0.016568277 0.061802734 0.00519686 0.0649774
-0.018544814 -0.061082926 0.09616929 0.092275865 -0.021847114 0.0024735285 0.031633377 -0.054920055
-0.048948925 0.056202926 -0.13562384 0.11529847 0.06486248 -0.14840806 -0.019838862 -0.054133747
0.03889256 0.02613106 0.07174882 0.06159553 0.0056519913 -0.00936006 0.069366805 -0.019122334
-0.024244206 0.017657578 0.006829713 0.033681255 -0.02187357 0.0055673365 -0.02690058 -0.101344906
0.12364984 -0.0095373625 0.049460288 -0.035811864 0.025576908 -0.010066797 -0.0014962542 -0.10952529
0.04393888 -0.0016354831 0.0063759102 0.011379711 0.041965827 -0.002849622 -0.04250048 0.014167887
0.0022806104 0.026104132 -0.009702809 0.00018351655 0.029051768 -0.00301393 -0.0353032 -0.02584871
00000000: 775b 85bc 7955 c83c e9ff 3b3d 8c6b 7e3c
00000010: 9fbb 813d 6767 12bd bb60 b43c 6fb1 99bc
00000020: 46b6 b33b 246d 143d 3ab1 4ebd 8a04 07bd
00000030: 2e7c 253d c1cf 5cbc 8c8c 12bd dde9 ddbb
00000040: 9493 ec3d b23b 5bbc 9f3f 543d 227f aa3d
00000050: 6d16 523d b780 3dbc c500 bbbc 29bf 053d
00000060: e380 22bd 359a 833d 5905 b7bc 680b 903d
00000070: 281e 403d c4a2 7c3c a350 8d3d 834f 9a3d
00000080: e9c6 36bd c08b ddbb 52db 793c f5d0 ed3c
00000090: 217e 413c 73f4 183d dad9 c33c 4753 c33d
000000a0: 2429 973d 0b4d 1d3d f593 2abd ab71 1dbd
000000b0: 9d4b 9c3a 61e7 7fbc 3193 11bc b2ec f4bb
000000c0: eda1 293c c60e 923d f497 683d e1fc 31bd
000000d0: 45f9 863d 3f73 4bbd 75ac 89bc 7102 8d3d
000000e0: 3a6e 6e3c a00d af3b e6ad bb3c 039a 7f3b
000000f0: 43d9 ae3c f2d7 e63c 019e 993d b9bc 6ebc
00000100: dbf6 8f3c 3d68 273d b84b 1d3a 328e cdbc
00000110: e6e6 ed3a e388 4b3d 2b8f aabc e584 2cbc
00000120: 80e6 153c b997 0b3d b6d0 d63a 9235 133d
00000130: f754 2a3d 14e4 a03c a641 b93c 1fd3 10bc
00000140: 5c4e a33c 8686 73bc 564b 843a 5e3b ba39
00000150: 127c ac3d 8ec8 973d 3d97 b83c 632b a6bb
00000160: 5a9e 153d 68c6 f73c ac52 833c 02a8 133d
00000170: 18c9 083d 4baf 873d e7c3 8c3d 67f8 c33c
00000180: a8f3 413d 5e0a 283d 10b0 26bb ac3c a5b9
00000190: 5ae6 513c 0025 a2bc f9e8 b23d 4c75 a23d
000001a0: 6643 e33c e659 7f3d efee 173c f4a5 ae3c
000001b0: 2cc1 693c 76ba 023d 7ed0 ad3c 9c47 dd3c
000001c0: ff61 023d a68e 81bd 2fa2 81ba a088 a33d
000001d0: 309f 4b3d 0e95 f2bb 81b3 af3d abec 8c3c
000001e0: 5dac d73b 8f66 21bd f630 c73c b736 8ebc
000001f0: 07bd ebbc bb29 ab3c 3c4a 8e3c 8099 60bd
00000200: 65b3 253b 948b cfbd f0bc a8bc 9ad9 2ebd
00000210: 7e4f a23d 618f c43c 08ad 803d b1d1 3dbd
00000220: 3953 ac3c fb47 e9bb 039a 563c f3f0 84ba
00000230: 2127 2abd e6d3 0d3d 3f42 11bc 2ee7 053d
00000240: d7fa 083d bc4a 1d3d d433 b83b d940 863d
00000250: 486d 163d 2e52 fb3c 1a94 e9bb 92bc b7bc
00000260: f011 0a3c 02b5 863c daff 083d d8b0 723d
00000270: 64f7 0bbd bc23 02bc ead7 b83d 7097 75bd
00000280: 98e0 863c f822 d0bc 48ce 9b3d d626 3cbd
00000290: aa0c e9bc 1882 b93d 2af4 82bd a9b3 aa3b
000002a0: 9d77 7c3d c873 04bc 91ca 1e3d 0256 adbc
000002b0: 4b3b 6b3d 568c 07bd 8a47 ab3d 2f57 7d3d
000002c0: c3df 8e3c b866 883b 9ff2 aa3b 773e 353d
000002d0: 6a7c fe3a fd89 2d3e 64f6 1dbe 1621 8f3d
000002e0: 8b45 0e3d b159 133c 2991 f1bc dacd e73d
000002f0: 9386 153d 3e35 e43a 18df 50bd b297 e73c
00000300: 88ca 2b3d 7186 933d d460 ce3d 30ec f4bc
00000310: 32ba 873c dd24 7d3d 6c4a aa3b df12 853d
00000320: 4beb 97bc 1732 7abd 68f4 c43d 21fb bc3d
00000330: b8f8 b2bc ec1a 223b 0092 013d daf3 60bd
00000340: ab7e 48bd 0a35 663d fae0 0abe 9b21 ec3d
00000350: 9fd6 843d 48f8 17be 1c85 a2bc 59bb 5dbd
00000360: ce4d 1f3d ce10 d63c 0cf1 923d 984b 7c3d
00000370: 5734 b93b f05a 19bc 2f10 8e3d 71a6 9cbc
00000380: c99b c6bc a0a6 903c c9cb df3b 5bf5 093d
00000390: 3330 b3bc 346e b63b 9b5e dcbc eb8d cfbd
000003a0: 213c fd3d 9942 1cbc df96 4a3d 76af 12bd
000003b0: aa86 d13c 35ef 24bc f61d c4ba cc4e e0bd
000003c0: 41f9 333d b55d d6ba 03ed d03b f871 3a3c
000003d0: 5ce4 2b3d b9c0 3abb fc14 2ebd 6d20 683c
000003e0: 4b76 153b 55d8 d53c 88f8 1ebc 596e 4039
000003f0: f9fd ed3c 5b85 45bb 179a 10bd adc0 d3bc

network.0.bias f4 [256]
0.34587714 0.2662002 0.2358809 -0.85360897 0.3088865 0.013649988 0.36904138 0.6331622
-0.020789977 0.6032359 -0.021768691 0.23718211 0.26950112 0.24699026 -0.0042544487 -0.36453074
-0.800141 0.39116207 0.40186742 -0.054651584 0.4475589 0.19155268 0.28781757 -0.6045052
0.3869838 0.00221809 -0.6206992 0.5545325 0.32878137 0.4692157 0.29928148 -0.013327431
-0.57140386 -0.02580653 0.5006421 0.32371923 0.24004698 0.31954432 0.3026333 0.7133687
0.4255559 0.30648288 0.22574815 -0.27375212 -0.029095674 0.25570783 0.00790089 -0.2922843
0.08241051 0.35018525 -0.039511133 0.36985824 0.24231307 -0.037430264 -0.84078854 0.21807538
-0.2492313 -0.028129837 -0.055984247 -0.0329737 0.45873562 0.32932273 0.15268524 0.5231462
0.55747175 -0.02280397 0.36963683 0.28684047 -0.002715034 -0.03536096 0.5230692 -0.049166255
0.47017384 0.096779406 -0.44911724 0.62993145 -0.014476422 0.19549419 -0.010946258 0.0012884948
0.6396134 -0.022996383 0.600323 0.012391402 0.40188363 -0.05665027 -0.038895614 0.0037143002
0.15022928 0.37161136 0.29080713 0.30312422 0.19102943 -0.029956404 0.3036535 0.23552947
0.1589423 0.6187859 0.20927145 0.25874326 0.31011727 0.64288765 0.3391608 0.17450611
0.5712364 0.009576423 0.47372895 -0.61682373 0.2105197 0.10609024 0.24595992 -0.012091241
0.27814585 0.059663642 0.21260393 0.5061853 -0.060351294 -0.020284606 -0.88275546 0.365436
-0.019133506 0.22139871 0.3331463 -0.030756574 0.32605633 -0.70834374 -0.22596042 0.33604482
0.41938266 -0.02790529 0.34905806 -0.02848999 0.4727515 -0.42524645 0.011049868 0.18185134
-0.50980514 -0.04616499 0.030111983 0.53483945 -0.023662118 0.007435967 0.62270844 0.005013136
0.021686211 0.65879095 -0.025836317 0.3279567 -0.8297608 0.31927413 -0.011021811 0.3321303
0.48979056 -0.030936725 0.38524753 -0.025444822 -0.041476764 -0.04437657 0.37204057 0.545627
0.15541136 -0.26157057 0.43060982 0.33364722 0.46036795 0.32341638 0.50946385 0.33082494
0.29643676 0.4484242 -0.006811608 0.045830853 -0.37378207 0.46642277 -0.043016236 0.6276753
0.22386003 -0.06623506 -0.47544712 0.19549552 0.5211998 0.017886316 0.16466364 0.5882157
0.00423565 0.57524157 0.5387436 -0.04089504 0.25889525 -0.0074121007 0.1985757 0.2907535
0.0016068605 -0.8409336 0.0016167318 -0.0016878909 -0.029394934 -0.9362349 0.39653507 -0.18631506
-0.0013683432 0.26622653 0.34374952 0.39914516 0.0031155217 -0.034045126 0.3515275 -0.036724277
0.59318745 -0.02455626 0.33220008 0.3393322 -0.0075850515 -0.0019029762 -0.022074666 0.011646877
0.162087 0.27364528 -0.24306607 0.1054161 -0.056881633 0.32505906 -0.07030128 0.30406266
-0.5965019 -0.010790887 -0.27807 -0.016037278 0.6145803 0.59310174 -0.045290425 0.63128316
-0.007773254 0.30699244 -0.36089006 -0.22225764 0.60501254 0.23214579 0.002932372 0.22479577
0.5210278 -0.017492801 -0.043216713 -0.028254585 0.047711078 -0.031164844 0.28420055 0.28673297
0.35932118 0.6197494 0.29872385 -0.030627578 0.2951747 -0.04848795 0.0027944858 -0.06286977
00000000: cf16 b13e 654b 883e c38a 713e 1e86 5abf
00000010: 5f26 9e3e 33a4 5f3c fef2 bc3e eb16 223f
00000020: be4f aabc ab6d 1a3f 4154 b2bc dedf 723e
00000030: 0dfc 893e 04eb 7c3e e768 8bbb c6a3 babe
00000040: 0ad6 4cbf 6546 c83e 91c1 cd3e 57da 5fbd
00000050: 7126 e53e 6326 443e d35c 933e dac0 1abf
00000060: be22 c63e 605d 113b 25e6 1ebf d8f5 0d3f
00000070: 0856 a83e 0a3d f03e 6c3b 993e 4c5b 5abc
00000080: 8647 12bf 3768 d3bc 152a 003f 87be a53e
00000090: e0ce 753e 509b a33e c0f2 9a3e 559f 363f
000000a0: 77e2 d93e 53eb 9c3e 862a 673e 3d29 8cbe
000000b0: 0d5a eebc 23ec 823e bc72 013c 4aa6 95be
000000c0: d7c6 a83d 7b4b b33e 6dd6 21bd 0f5e bd3e
000000d0: eb20 783e 7a50 19bd eb3d 57bf 274f 5f3e
000000e0: 7d36 7fbe 8b70 e6bc bd4f 65bd 6e0f 07bd
000000f0: 65df ea3e fd9c a83e 8559 1c3e e9ec 053f
00000100: 78b6 0e3f 64cf babc 0a41 bd3e c1dc 923e
00000110: b6ee 31bb a7d6 10bd dde7 053f 8e62 49bd
00000120: a0ba f03e 4834 c63d b2f2 e5be 3043 213f
00000130: 842e 6dbc a12f 483e ef57 33bc b6e2 a83a
00000140: b4bd 233f e962 bcbc c5ae 193f 4f05 4b3c
00000150: b1c3 cd3e 1d0a 68bd 0251 1fbd 9e6b 733b
00000160: b4d5 193e d843 be3e ace4 943e 1933 9b3e
00000170: 389d 433e 2267 f5bc 7978 9b3e a32e 713e
00000180: c5c1 223e c168 1e3f 414b 563e ff79 843e
00000190: b1c7 9e3e 4994 243f 7ca6 ad3e bbb1 323e
000001a0: 8c3c 123f 6ee6 1c3c 9a8c f23e 29e8 1dbf
000001b0: 7a92 573e d745 d93d ebdc 7b3e 571a 46bc
000001c0: 2269 8e3e dd61 743d d8b4 593e 5c95 013f
000001d0: eb32 77bd e72b a6bc 43fc 61bf 6d1a bb3e
000001e0: dfbd 9cbc 58b6 623e 2792 aa3e 36f5 fbbc
000001f0: dbf0 a63e 0456 35bf 2b62 67be 110e ac3e
00000200: 53b9 d63e a299 e4bc bdb7 b23e d763 e9bc
00000210: 7c0c f23e e7b9 d9be 810a 353c 3d37 3a3e
00000220: 9782 02bf 8017 3dbd 68ad f63c 3deb 083f
00000230: 0fd7 c1bc 6aa9 f33b d269 1f3f 3c45 a43b
00000240: 48a7 b13c 86a6 283f afa6 d3bc f1e9 a73e
00000250: 346b 54bf e677 a33e d394 34bc fc0c aa3e
00000260: d4c5 fa3e 046f fdbc 2a3f c53e a971 d0bc
00000270: 8ae3 29bd 35c4 35bd 1a7c be3e 36ae 0b3f
00000280: 2824 1f3e 94ec 85be e478 dc3e cfd3 aa3e
00000290: 59b5 eb3e d596 a53e 396c 023f e361 a93e
000002a0: 8fc6 973e db97 e53e e933 dfbb 22b9 3b3d
000002b0: 5d60 bfbe f7ce ee3e cb31 30bd 54af 203f
000002c0: 903b 653e 3fa6 87bd ce6d f3be fa2f 483e
000002d0: 5a6d 053f 5386 923c 969d 283e 4e95 163f
000002e0: 35cb 8a3b 0843 133f 1aeb 093f 8f81 27bd
000002f0: eb8d 843e 35e1 f2bb 6e57 4b3e a5dd 943e
00000300: 4b9d d23a 6d47 57bf 84e8 d33a 383c ddba
00000310: a5cd f0bc 17ad 6fbf a506 cb3e 60c9 3ebe
00000320: fb59 b3ba d84e 883e f0ff af3e c15c cc3e
00000330: c82d 4c3b e772 0bbd 6afb b33e 326c 16bd
00000340: 22db 173f 362a c9bc 2116 aa3e f3bc ad3e
00000350: 068c f8bb 496d f9ba eed5 b4bc 8bd2 3e3c
00000360: 22fa 253e 3c1b 8c3e 50e6 78be 65e4 d73d
00000370: b7fc 68bd 246e a63e 1efa 8fbd 1aae 9b3e
00000380: 59b4 18bf 43cc 30bc 315f 8ebe 9c60 83bc
00000390: 2255 1d3f 84d5 173f 7482 39bd c69b 213f
000003a0: c8b6 febb 1d2e 9d3e 95c6 b8be 8297 63be
000003b0: 1ae2 1a3f a0b7 6d3e 0a2d 403b dd30 663e
000003c0: 1462 053f 104d 8fbc 0204 31bd 2976 e7bc
000003d0: b16c 433d 6a4d ffbc bc82 913e aace 923e
000003e0: f2f8 b73e e6a7 1e3f 55f2 983e b0e6 fabc
000003f0: 2321 973e 4d9b 46bd b123 373b dec1 80bd

network.2.weight f4 [1, 256]
-0.23295714 -0.122967355 -0.10021552 0.040451303 -0.16578847 -0.056791354 -0.032696504 -0.107872374
0.035445217 -0.13506058 -0.04541376 -0.043417107 -0.23080365 -0.08395148 0.043951403 -0.008288658
0.020089751 -0.22931354 -0.21635891 -0.03453531 -0.35912338 -0.05743779 -0.04964279 0.0042865
-0.107040495 0.014244586 0.013274698 -0.21003339 -0.13608703 -0.04359267 -0.10079447 0.028515456
0.0059058615 -0.005942968 -0.06897646 -0.06097584 -0.051719766 -0.028715823 -0.2356485 -0.27433932
-0.10773775 -0.19200614 -0.019548638 -0.008828354 0.037950594 -0.34152496 0.006002092 -0.017449515
-0.107118115 -0.21234475 0.027300704 -0.35509092 -0.064946204 0.027237155 0.035963207 -0.19088222
-0.027522463 -0.046880204 0.01960546 0.027455136 -0.11524858 -0.23359032 -0.14290144 -0.14592913
-0.088211276 -0.027888482 -0.26499936 -0.04685487 -0.031581264 0.015342162 0.0090203 0.005605647
0.0060622403 -0.05082443 -0.010670329 -0.3685387 -0.020507753 -0.16164678 0.038963076 0.024336703
-0.07328326 -0.051163305 -0.24929762 0.03018179 -0.09545539 -0.035012078 0.014777025 0.03869544
-0.15299602 -0.1829491 -0.21963534 -0.07570277 -0.13929592 0.029344553 -0.19706726 -0.1929013
-0.11449738 -0.09100446 -0.067330815 -0.13958037 -0.1693085 -0.048661374 -0.34504977 -0.2654216
-0.09232225 0.032332614 -0.2789932 0.011056822 -0.08703055 -0.07304125 -0.11782951 0.03674427
0.007467937 -0.054132458 -0.025988936 -0.16235831 0.017131107 0.0015450061 0.034199256 -0.070603654
-0.06911697 -0.050798494 -0.07136657 0.032345768 -0.1610888 0.014060881 0.015444482 -0.22780018
-0.20017374 0.0043314234 -0.25623786 0.033029877 -0.06092914 -0.02442686 -0.03226196 -0.16624646
-0.015723556 0.01978606 -0.020420773 -0.12880799 0.0335985 0.034435008 -0.19631265 -0.010995821
-0.0048594647 -0.14973424 -0.056976482 -0.13990997 0.031223755 -0.33241898 0.0034509613 -0.035419002
-0.04889911 0.006885274 -0.14568724 0.03040327 0.036389392 0.0058601033 -0.23579182 0.006790482
-0.10476817 -0.0024675103 -0.1934585 -0.05808063 0.0009943474 -0.15958567 -0.17014787 -0.17664887
-0.26894945 -0.31044325 0.042826083 -0.050963134 -0.035246555 -0.10577694 0.045653436 -0.006630505
-0.05502205 -0.0026033407 -0.006892897 -0.11927093 0.030424498 -0.20947906 -0.15876625 -0.09401081
0.03304313 -0.054622218 -0.102160074 0.039945703 -0.24715737 0.0016346268 -0.10286859 -0.21662864
0.030081417 0.0332076 0.02435233 0.0138769485 -0.19003062 0.059079792 -0.33713436 -0.0129474085
0.009693096 -0.28782356 0.038077842 -0.38916686 0.0114324605 -0.014598611 -0.19830622 0.018701842
0.017412474 -0.0018847431 -0.13554142 -0.028865177 -0.028974561 0.028041588 0.0015996977 0.04981687
-0.0926226 -0.05069614 0.014779413 -0.09988223 0.010256166 -0.022331383 -0.009452026 -0.17847526
0.011010931 -0.028715374 -0.05168403 -0.00030896693 -0.2551944 -0.104765244 0.03884128 -0.047470145
-0.011710542 -0.28954715 -0.026954457 -0.08153135 -0.018314745 -0.054448277 -0.012145811 -0.10190935
-0.007839478 0.014501085 0.01313348 -0.003064877 -0.035153434 0.011587534 -0.16453902 -0.20754008
-0.059027527 -0.16293073 0.09635655 0.009856215 -0.23298624 0.027206782 -0.00044026648 -0.03507768
00000000: 518c 6ebe 4fd6 fbbd cb3d cdbd 44b0 253d
00000010: 74c4 29be 0d9e 68bd c5ec 05bd 31ec dcbd
00000020: 012f 113d 524d 0abe c703 3abd 23d6 31bd
00000030: cb57 6cbe c1ee abbd 6306 343d 27cd 07bc
00000040: 4393 a43c 2bd1 6abe 318d 5dbe e674 0dbd
00000050: 05df b7be e343 6bbd 3d56 4bbd c575 8c3b
00000060: 0c38 dbbd 2062 693c 1e7e 593c fe12 57be
00000070: 665a 0bbe 3a8e 32bd 556d cebd 3f99 e93c
00000080: f585 c13b 3bbd c2bb 8843 8dbd cdc1 79bd
00000090: 1bd8 53bd 723d ebbc d74d 71be 3476 8cbe
000000a0: 9ca5 dcbd 429d 44be 7724 a0bc cda4 10bc
000000b0: 1572 1b3d 5cdc aebe 32ad c43b 49f2 8ebc
000000c0: be60 dbbd e770 59be baa5 df3c 7ace b5be
000000d0: 8402 85bd 7420 df3c 284e 133d a176 43be
000000e0: ca76 e1bc 7505 40bd a19b a03c 98e9 e03c
000000f0: 7307 ecbd 4d32 6fbe c154 12be 726e 15be
00000100: 1da8 b4bd 6376 e4bc ffad 87be e4ea 3fbd
00000110: 5b5b 01bd b15d 7b3c e1c9 133c 93af b73b
00000120: c2a5 c63b 472d 50bd 9bd2 2ebc 1bb1 bcbe
00000130: e0ff a7bc bc86 25be bf97 1f3d c45d c73c
00000140: 8915 96bd 9d90 51bd e047 7fbe cd3f f73c
00000150: 1e7e c3bd d368 0fbd 561b 723c 1c7f 1e3d
00000160: fdaa 1cbe 0257 3bbe 16e8 60be 0e0a 9bbd
00000170: 97a3 0ebe fd63 f03c 00cc 49be eb87 45be
00000180: 9a7d eabd 8c60 babd bde4 89bd 28ee 0ebe
00000190: 355f 2dbe 2651 47bd 5daa b0be 57e5 87be
000001a0: 7313 bdbd 346f 043d 32d8 8ebe ac27 353c
000001b0: 133d b2bd a796 95bd 9950 f1bd 2981 163d
000001c0: 99b5 f43b ffb9 5dbd c0e6 d4bc 4241 26be
000001d0: 8956 8c3c cd81 ca3a 8514 0c3d a698 90bd
000001e0: 338d 8dbd 1512 50bd a328 92bd ff7c 043d
000001f0: 76f4 24be 9c5f 663c da0a 7d3c 7344 69be
00000200: 58fa 4cbe 9dee 8d3b 9c31 83be 564a 073d
00000210: d590 79bd d71a c8bc 1e25 04bd 833c 2abe
00000220: b0ce 80bc 6016 a23c 7749 a7bc 3ee6 03be
00000230: 959e 093d b90b 0d3d 2f06 49be d127 34bc
00000240: 253c 9fbb ef53 19be 2c60 69bd 8f44 0fbe
00000250: f6c8 ff3c d232 aabe 8629 623b 8413 11bd
00000260: 6f4a 48bd dd9d e13b 092f 15be 4710 f93c
00000270: 0b0d 153d 1c06 c03b 6973 71be b182 de3b
00000280: b290 d6bd f4b5 21bb fc19 46be f4e5 6dbd
00000290: c354 823a 6d6a 23be 3e3b 2ebe 71e3 34be
000002a0: beb3 89be 6bf2 9ebe 676a 2f3d b8be 50bd
000002b0: b15e 10bd 95a1 d8bd 19ff 3a3d b544 d9bb
000002c0: cd5e 61bd cf9c 2abb d0dd e1bb 5144 f4bd
000002d0: cc3c f93c ae81 56be 9f93 22be bd88 c0bd
000002e0: 3c58 073d 8cbb 5fbd 4d39 d1bd 1b9e 233d
000002f0: d216 7dbe f940 d63a c4ac d2bd e6d3 5dbe
00000300: 4e6d f63c b104 083d 8a7e c73c 245c 633c
00000310: 6397 42be a7fd 713d e09c acbe 5e21 54bc
00000320: cbcf 1e3c 9c5d 93be 83f7 1b3d e140 c7be
00000330: 374f 3b3c 032f 6fbc c910 4bbe 9b34 993c
00000340: 9ba4 8e3c 7c09 f7ba 5fcb 0abe aa76 ecbc
00000350: 0f5c edbc 79b7 e53c f3ac d13a c60c 4c3d
00000360: ebb0 bdbd c1a6 4fbd 5a25 723c 0e8f ccbd
00000370: 7a09 283c 4ef0 b6bc acdc 1abc 38c2 36be
00000380: 3167 343c 813c ebbc a2b2 53bd d7fc a1b9
00000390: d7a8 82be 298f d6bd 0918 1f3d 0e70 42bd
000003a0: 93dd 3fbc 863f 94be 98cf dcbc e9f9 a6bd
000003b0: ce08 96bc 2805 5fbd 39ff 46bc d9b5 d0bd
000003c0: 2771 00bc f595 6d3c cf2d 573c 1adc 48bb
000003d0: 0cfd 0fbd a4d9 3d3c eb7c 28be 6385 54be
000003e0: d9c6 71bd 50d7 26be 9556 c53d f67b 213c
000003f0: f293 6ebe c2e0 de3c 91d3 e6b9 9dad 0fbd
