model/mnist_cgan_01_generator_epoch05.pt (torch, 884719 bytes, 4 tensors)

network.0.weight f4 [256, 74]
000000 d5 ff 5b 3b 98 2c a3 bb 0c cc 9c bb b5 f1 04 bc
       0.0033569236 -0.004979681 -0.0047850665 -0.008114268
000010 3d 32 64 39 d9 14 b2 b9 87 52 25 3b e4 12 fe ba
       0.0002176249 -0.00033966338 0.0025226192 -0.0019384292
000020 65 ee 63 3b 7c 90 6d 3b 99 cd 0c 3c 9a 7b 9c 3b
       0.0034779545 0.003624945 0.00859394 0.0047754766
000030 88 19 fb ba b8 dc 02 bb 16 e4 4b ba 17 72 df 3a
       -0.0019157389 -0.0019967984 -0.0007777823 0.0017047551
000040 58 4f 94 ba 3a 41 27 3b 5c bd a9 b8 7b e2 62 ba
       -0.001131515 0.0025521056 -8.093819e-05 -0.0008654964
000050 8b ce 21 bb 35 98 ce 39 b2 5f d9 3b 27 60 67 3a
       -0.002468976 0.00039404785 0.006633722 0.00088262785
000060 1b c5 3a bb 42 ad b3 b9 73 eb 4d 39 56 b0 4b 3b
       -0.0028498832 -0.00034270628 0.00019638035 0.0031080446
000070 2a a7 a2 3a db 9b cf 3b 4f 90 85 ba e5 96 39 3b
       0.0012409438 0.006335718 -0.0010190102 0.00283187
000080 fc 26 d9 b9 5e 9b c0 bb bf 89 c4 3b ce 9b 9b bb
       -0.0004141851 -0.005877896 0.005997866 -0.004748798
000090 30 ad 82 bb 57 24 68 bb d4 80 3c ba 3b 04 1c bc
       -0.0039879307 -0.003542205 -0.0007190828 -0.009522493
0000a0 c6 93 e2 39 54 db 20 bb b2 4b 64 ba d3 14 9c ba
       0.0004321618 -0.0024544792 -0.0008708789 -0.0011908062
0000b0 42 c1 c7 bb 02 2b ae 3a d2 4e 1b 3b 82 1a 62 bb
       -0.006096036 0.0013287964 0.0023698104 -0.0034500663
0000c0 6c b5 74 3b 38 5f 90 ba 01 e7 a7 3b 92 1a 11 3a
       0.0037339581 -0.0011014706 0.0051239734 0.00055352703
0000d0 20 d5 2d bb d3 a0 90 bb 53 4d 51 ba ad de 02 bb
       -0.0026524737 -0.004413703 -0.00079842395 -0.001996915
0000e0 05 4a 87 3b 22 71 3d bb 2e 11 db 3a 75 ed 7b b9
       0.004128697 -0.0028906544 0.0016713494 -0.00024025685
0000f0 f8 40 91 3b 76 2b c6 3a 41 3d 80 bb 8c 57 81 3b
       0.0044327937 0.0015119154 -0.003913552 0.003947204
000100 e9 86 12 be e0 ec 2f be 13 f8 ba bd be 5b d2 bd
       -0.14309277 -0.17180204 -0.09129348 -0.10271405
000110 c8 98 e4 bd f8 ab c1 bd 14 e9 d0 bd 93 a7 18 be
       -0.11161953 -0.094566286 -0.10200706 -0.14907674
000120 61 fe c2 bd 5a 6f 01 be 7a bf c3 3b 1f ea 12 3c
       -0.09521175 -0.12640134 0.0059737535 0.008966952
000130 c3 de 47 3b a0 17 2f 3c 15 30 3d 3a 20 6d 3d bb
       0.0030497767 0.010686785 0.00072169426 -0.0028904155
000140 7b a7 44 3c f8 66 87 3a 9e 04 16 bc 16 df 02 3c
       0.012002821 0.001033037 -0.009156374 0.007987758
000150 db 6b ca bb 73 00 72 3a 86 26 e4 3b 4c 31 13 bb
       -0.006177408 0.00092316343 0.0069626 -0.0022459803
000160 d6 6d ff b8 59 b5 03 3a 30 96 1c 3b 9d de 99 3b
       -0.00012179806 0.00050242763 0.002389323 0.004695727
000170 9f 87 94 3c 84 54 56 3c 05 96 a7 3b 01 73 e7 3a
       0.018131075 0.0130816735 0.0051143193 0.0017658175
000180 10 bb c9 3b 92 88 67 3c c6 5a 7b 3b ef 5c 93 bb
       0.006156333 0.014131682 0.0038353666 -0.0044971625
000190 07 f9 6f bb a4 31 55 bc f5 ec f5 39 ed 21 7d 3b
       -0.0036616938 -0.0130123235 0.00046906588 0.0038624958
0001a0 b2 24 37 3c d6 95 e7 b9 64 da ea 3b 72 74 f4 b7
       0.011178182 -0.0004417139 0.0071671475 -2.914129e-05
0001b0 d1 89 9c ba f2 63 80 38 66 d2 91 3b 32 b6 38 3c
       -0.0011942928 6.122132e-05 0.0044501303 0.0112739075
0001c0 f6 82 a4 b7 0c e6 37 3a aa ed 1a 3c 8e 91 ba 3b
       -1.9611307e-05 0.00070151757 0.009456078 0.005693621
0001d0 7e 9d 04 ba a7 6e 54 bb 37 a1 94 3b af 0e 1b bc
       -0.00050588686 -0.0032414587 0.00453582 -0.00946395
0001e0 06 1d 95 3c 34 be 88 3b eb 47 7c 3b 51 b9 04 bc
       0.018202316 0.0041730646 0.0038495015 -0.0081008235
0001f0 29 a9 44 3a 5d b7 0d 3b 6b 6b 60 3b e6 01 f2 3b
       0.00075020135 0.0021624186 0.0034243714 0.00738548
000200 cf f9 82 3c 9a c2 fc bb ce 3d 33 bc 88 31 fa bb
       0.015988259 -0.007713628 -0.010940028 -0.007635299
000210 36 f7 42 bb e1 c2 60 3b 62 0b 14 ba 71 17 15 3a
       -0.00297494 0.0034295844 -0.0005647448 0.0005687392
000220 91 98 40 bc 53 67 7f bb 2c d7 86 be 4b 86 76 be
       -0.011755125 -0.0038971498 -0.26336038 -0.24074666
000230 94 95 cd bd 2f 1e b5 bd 93 cc f0 bd 66 2a 70 be
       -0.100382954 -0.08843648 -0.117577694 -0.23453674
000240 f4 37 0a be 3c 45 51 be e7 b3 52 be a2 87 cd bd
       -0.13497907 -0.20436567 -0.2057644 -0.100356355
000250 d4 4f a9 bc fc 15 85 3c 94 0e 00 3b 67 11 fe 3c
       -0.020667948 0.016245835 0.001953994 0.031014157
000260 40 6e 3d bb fb db da bb 53 38 28 bc 91 ff 96 bb
       -0.0028904825 -0.0066790557 -0.010267335 -0.0046081026
000270 9d 3e 87 bc f5 df 2b 3c d1 44 9b 3c 04 dd 2a bc
       -0.016509349 0.010490407 0.018953713 -0.010428671
000280 0d 0f d5 3a 05 38 8e b9 18 67 05 3c 7f 77 02 3d
       0.0016255096 -0.00027126088 0.008142255 0.03185224
000290 6e 47 7b bb c1 01 63 3b b2 9c 54 bb 24 bc a5 3c
       -0.0038342136 0.0034638497 -0.003244203 0.020231314
0002a0 d5 1a ba 3a 9e 42 32 3c 15 88 cb bb 02 83 67 bb
       0.001419867 0.010880141 -0.0062112906 -0.003532589
0002b0 af 7b dc 39 1c 8d 51 3c 09 d5 d2 bc a4 5f 6e ba
       0.0004205382 0.012789991 -0.025736349 -0.0009093231
0002c0 2e a2 95 3b d4 cb 50 bc df 81 12 bc f1 42 3d bb
       0.0045664525 -0.012743909 -0.0089420965 -0.0028879012
0002d0 13 0a 81 3b b9 4f 16 3b d6 55 62 bb 98 ab 59 bc
       0.0039379685 0.0022935702 -0.0034536025 -0.01328554
0002e0 6e b1 32 bb 8b fa d3 3c 2d 47 ed bb 4c 90 70 3c
       -0.00272664 0.025876304 -0.007241151 0.014682841
0002f0 f3 76 86 bc d4 ef 55 3b db b0 81 3c 72 3f 22 bc
       -0.016414141 0.003264417 0.015831402 -0.009902822
000300 d1 47 01 bd e0 3a aa bc 63 1c bc bb 8e 5a 4c 3c
       -0.03156263 -0.020780027 -0.0057406886 0.012472762
000310 1f db 9d bb 67 08 d7 bb a3 05 b1 bb 7f e8 5f 3c
       -0.004817381 -0.006562281 -0.0054022833 0.013666271
000320 f6 39 14 bc d8 89 b1 bc ad 6d 56 39 98 3e c9 3b
       -0.009047022 -0.021672174 0.00020449488 0.006141495
000330 d2 3d 80 bc f9 e4 42 bc 26 4c 26 39 4a 3e 4f 3c
       -0.015654478 -0.011895412 0.00015859361 0.012649128
000340 e8 7c 11 3c 79 0f ee 3b 6c 75 9b 39 8a 56 a7 bb
       0.008879878 0.007265028 0.0002965139 -0.005106752
000350 47 0b 25 be f5 7d 6f be 1f 8c 7e be 4c eb 74 be
       -0.16117583 -0.23387893 -0.2485814 -0.23917884
000360 5d d9 6d be 26 82 4a be 24 87 2d be 8c 6f 61 be
       -0.23227449 -0.1977621 -0.16946083 -0.22015208
000370 3a 81 fb bd e8 99 34 be 5e 81 e3 bb bc e4 99 bb
       -0.122805074 -0.17636836 -0.006942912 -0.0046964567
000380 18 e2 73 3a 6a e6 ed 3b 29 e2 93 3c 44 29 f4 3b
       0.0009303405 0.0072601335 0.018052178 0.0074512083
000390 a8 15 40 3b 33 83 39 bc 46 c8 9e 3b 5c f2 9e 3c
       0.0029309783 -0.011322784 0.004845652 0.019402675
0003a0 00 40 70 3c fb 2c 3b b9 e6 e9 98 3b 00 96 25 3a
       0.014663696 -0.00017850466 0.0046665547 0.0006316602
0003b0 51 44 94 3b 75 fa 3e 3b fc 30 2e 3c 9d a2 3a 3c
       0.0045247455 0.0029140983 0.010631796 0.011391309
0003c0 f9 30 56 ba 18 56 0e bc 44 c0 98 3b 1d 2a 1f 3a
       -0.00081707496 -0.008687519 0.0046615917 0.0006071644
0003d0 92 91 bd bb e6 ab 78 3c 90 eb 39 bb bd d7 0f 3a
       -0.0057851756 0.0151777025 -0.0028369166 0.00054871646
0003e0 be aa 2f 3c be b5 4b 3a 3a 5d d5 bb ac 3e 2f 3b
       0.01072186 0.0007770917 -0.0065113576 0.0026740236
0003f0 1c f2 e7 bb 1f a0 9b bb 90 79 89 3b 3d b8 2d bc
       -0.0070784222 -0.0047493125 0.0041953996 -0.010603008

network.0.bias f4 [256]
000000 7b 1d c6 3b 66 25 d3 bd b8 f9 63 be 65 58 f5 bd
       0.006045995 -0.103098676 -0.22263229 -0.119797505
000010 ea 46 ee bd 66 2c f2 bd 31 1e 67 be 6d e1 6e be
       -0.116346195 -0.118248746 -0.22570111 -0.2332818
000020 a0 a0 ff bd 84 c0 8c bd 44 61 07 be 20 c0 42 be
       -0.12481809 -0.06872657 -0.13220698 -0.19018602
000030 68 f4 d3 bd 4f ef e8 bd 10 ca b5 bd 82 ce 87 be
       -0.10349351 -0.113737695 -0.08876431 -0.2652474
000040 e8 58 01 be f8 c7 be bd 48 25 9a bd 1b dd 3a be
       -0.12631571 -0.09315485 -0.07526642 -0.18248408
000050 93 21 d7 bd cb c9 cc bd 90 9d e9 bd 50 c3 cd bd
       -0.10504451 -0.099994265 -0.11407006 -0.100470185
000060 9d aa 97 bd a4 d9 18 be 8a 2c 76 bd f7 7a 50 be
       -0.07405589 -0.14926773 -0.06010107 -0.20359407
000070 67 8e 02 be 06 c9 18 be b2 7c c2 bd 24 78 46 be
       -0.12749635 -0.14920434 -0.0949644 -0.19381768
000080 fb cd 3c be a8 77 23 be bf 00 31 be 4e 20 2f be
       -0.1843795 -0.15963614 -0.17285441 -0.17102167
000090 7c d0 57 be 37 fb 09 be dc a1 55 be 9c 15 ed bd
       -0.21075624 -0.13474737 -0.20862526 -0.11576387
0000a0 ad 8c 58 be 6a 5f 37 be 71 82 2d be 78 a8 3a be
       -0.21147414 -0.17907491 -0.1694429 -0.18228328
0000b0 44 3a ab bd 3d 80 17 be 92 19 0c be 27 88 f9 bd
       -0.08360723 -0.14795013 -0.1368163 -0.12184172
0000c0 1c 95 35 be c8 55 c0 bd 4d 45 10 be 97 28 09 be
       -0.17732662 -0.093913615 -0.14088936 -0.1339439
0000d0 50 77 2b bd 14 ae 60 be a6 6d c2 bd b6 29 4c be
       -0.041861832 -0.21941406 -0.0949357 -0.19937786
0000e0 94 f2 2c be 7b 21 12 be 03 da 12 be a7 77 c5 bd
       -0.16889411 -0.14270584 -0.14340977 -0.096419625
0000f0 d6 c6 75 be 34 81 14 be b1 54 2b be 79 ab 64 be
       -0.24001631 -0.14502412 -0.16731526 -0.22331037
000100 50 ac 73 bd ef 6d 47 bd a3 e3 3b be ca c5 87 be
       -0.059490502 -0.048688825 -0.18348555 -0.2651809
000110 5c 87 7a bd 41 b0 e1 bd 58 62 ff bd b9 79 1b be
       -0.061164245 -0.11019946 -0.124699295 -0.15183152
000120 da c1 2c be 97 26 82 bd 5f 71 35 3d 0a c2 4d be
       -0.16870824 -0.06355017 0.044297572 -0.20093551
000130 0c b4 17 be 55 c8 5e be bf ba bc 3e 8d 48 f4 bd
       -0.14814776 -0.21756108 0.36861226 -0.119279005
000140 6a dd 5b be 7f e4 f4 bd 68 37 92 bd 59 c1 59 be
       -0.21471182 -0.11957645 -0.07139474 -0.21265163
000150 2c 8b 0e be 48 30 42 be 51 73 0f be 61 5a 58 be
       -0.13920277 -0.1896373 -0.14008833 -0.21128227
000160 53 bb 73 bd 6a 9e bc bd b5 2c d7 bd 31 f4 15 bd
       -0.05950482 -0.092099026 -0.10506574 -0.036609832
000170 de bb 43 be 1e 09 34 be f1 3a dd bd f5 e4 40 be
       -0.19114634 -0.17581603 -0.10802258 -0.1883734
000180 bb 55 29 be ee 24 0f be cc df 4f be e9 a2 4e be
       -0.1653661 -0.13978931 -0.20300215 -0.20179333
000190 47 13 28 be c5 5b 4d be f2 e5 53 be 72 53 00 be
       -0.16413604 -0.20054539 -0.20693186 -0.12531832
0001a0 13 e5 f4 bd f9 f1 d9 bd 0e 59 8f bd fd 3a 33 be
       -0.11957755 -0.10641856 -0.06999408 -0.17502971
0001b0 1f e7 63 be ba 1c 29 be 97 0c ff bd 4f f0 1d be
       -0.22256134 -0.16514865 -0.12453573 -0.15423702
0001c0 82 d0 01 be 4a b6 01 3e 2f f2 29 be 7b f8 ce bd
       -0.12677196 0.12667194 -0.16596292 -0.10105988
0001d0 58 4e ea bd d0 7b 2e be f2 52 ec bd c1 af a6 bd
       -0.11440724 -0.17039418 -0.11539258 -0.08138991
0001e0 b8 27 ef bd 81 cc 80 be 62 80 b0 bd d9 7b 37 be
       -0.116774976 -0.25156024 -0.08618237 -0.17918338
0001f0 e2 37 4f 3e dd 5e e8 bd 44 54 37 be e8 78 fd bd
       0.20236161 -0.11346219 -0.17903239 -0.12376577
000200 2d 4a 4d be 2d a0 26 be 35 69 5e be 04 ab 28 be
       -0.20047827 -0.1627204 -0.21719821 -0.16471487
000210 af b9 5a be e7 7e 41 3e 21 32 03 be 04 bb 25 be
       -0.21359895 0.18896066 -0.12812091 -0.16184622
000220 76 31 bc bd 30 c1 25 be ad 3f 40 be 4c e1 58 be
       -0.091891214 -0.16186976 -0.1877429 -0.21179694
000230 ca d9 4d be 3b 34 b8 bd df e1 96 bd 22 11 43 be
       -0.20102611 -0.08994337 -0.073673 -0.19049504
000240 5e 39 33 be 7d 93 fa bd 26 da 04 be 9d 35 0f be
       -0.17502353 -0.122351624 -0.12973842 -0.13985296
000250 63 7d d8 bd 09 0f 2e bd 50 cf f8 bd cf e3 18 be
       -0.105707906 -0.042494807 -0.12148917 -0.14930652
000260 33 f2 23 be 91 ba ec bc 38 3b ae bd a6 f1 34 be
       -0.1601036 -0.028897556 -0.08507389 -0.17670307
000270 3d 25 5c be 6b a3 30 be 71 f7 ec bd 48 0f 6c be
       -0.2149858 -0.17249839 -0.11570633 -0.23052704
000280 d1 7f 47 be 64 cc f6 bd 08 98 43 be 8c c1 68 be
       -0.19482352 -0.12050703 -0.19100964 -0.22730082
000290 27 02 66 be b7 71 d6 bd d4 db 45 be 5a 64 dd bd
       -0.22461759 -0.10470908 -0.19322139 -0.10810156
0002a0 02 93 06 bd aa b3 d1 bd b1 7c db bd 0f 1f b2 bd
       -0.03285504 -0.10239346 -0.107171424 -0.0869733
0002b0 2c 36 ee bd 6c 71 74 be 69 ba 6d be b8 5d 56 be
       -0.11631426 -0.23871392 -0.23215641 -0.20934188
0002c0 55 33 a5 bd 11 f0 c8 bd 22 aa 7f 3e 7b 7f 7d be
       -0.080664314 -0.09811414 0.24967244 -0.24755661
0002d0 59 d7 30 3e 56 9e db bd d9 e4 8e be b0 8d 1b bd
       0.17269649 -0.107235596 -0.27908972 -0.03797692
0002e0 4c cb 0d be 70 da d8 bd 60 33 68 be 9e dd 4d bd
       -0.13847083 -0.10588539 -0.22675848 -0.05026018
0002f0 5b 27 b0 bd 1f 08 d1 bd 14 95 b2 bd 27 c0 31 be
       -0.086012565 -0.10206627 -0.08719841 -0.17358457
000300 1f c2 3d be 4f 41 81 be f9 00 56 bd d6 de 2f be
       -0.18531083 -0.2524514 -0.05224702 -0.17174849
000310 76 e7 67 be 93 61 52 bd 1d 20 66 be 08 be 97 bd
       -0.22646889 -0.051362585 -0.22473188 -0.074092925
000320 83 96 eb bd 7d 83 df bd c5 ef 3c be 7e bd d7 bd
       -0.11503317 -0.10913751 -0.1845084 -0.1053419
000330 d9 1e 27 be 30 12 60 be 35 fc 45 be ed 24 e8 bd
       -0.16320361 -0.21881938 -0.1933449 -0.11335168
000340 b5 cd 05 be b5 15 9e 3c 27 f5 53 be 3f 35 37 be
       -0.13066752 0.01929746 -0.20698987 -0.17891406
000350 7c d4 1d bd eb b3 44 be 0a ec 54 be 8a 95 c2 bd
       -0.03853272 -0.19209258 -0.20793167 -0.095011786
000360 1f 83 c1 bd 42 8a a0 bd 50 10 57 be 92 13 e5 bd
       -0.094488375 -0.078388706 -0.21002316 -0.11185373
000370 3e 5b e0 bd 4e df 14 be 60 ff 0a be c3 93 89 be
       -0.10954903 -0.14538309 -0.1357398 -0.26870546
000380 9f a6 ba bd 6a b5 36 be 31 54 3c bd 2e 70 bf bd
       -0.09113812 -0.17842641 -0.04597873 -0.093475685
000390 c7 7c 56 be be 8f 59 be 42 c8 f9 bd 53 18 db bd
       -0.20946036 -0.2124624 -0.12196399 -0.10697999
0003a0 8a 88 73 be 41 de 34 be fc ef 01 be e8 31 0b be
       -0.23782554 -0.17662908 -0.12689203 -0.13593256
0003b0 81 9e 34 be be c4 f5 bd f8 bd fb bd 39 ef 1c be
       -0.1763859 -0.12000416 -0.12292093 -0.15325631
0003c0 74 98 22 bd e0 ff 64 be 49 1e 95 bd 13 89 12 be
       -0.039696172 -0.22363234 -0.07281167 -0.14310102
0003d0 de c7 fe bd a4 e6 8f bd db cf 73 be 23 46 31 be
       -0.124404654 -0.07026413 -0.2380976 -0.17311911
0003e0 57 78 2b be dc a0 81 be ee 29 4e be 99 9f 20 be
       -0.16745125 -0.25318038 -0.20133182 -0.15685882
0003f0 49 9c d3 bd ed 6e 26 be ac f5 f8 bd 89 3d 1c be
       -0.103325434 -0.16253252 -0.12156233 -0.15257849

network.2.weight f4 [784, 256]
000000 7d d3 7d bd 97 c4 2f 3d a4 e3 82 bd 1e 66 ae be
       -0.06196927 0.042912092 -0.06391075 -0.34062284
000010 cd e9 ec bd a8 03 1b bf f1 26 9d bd 7f cb c8 bd
       -0.115680315 -0.60552454 -0.07673443 -0.09804439
000020 7a a0 00 be 7b 73 0a be 92 33 ba be be 7b 24 be
       -0.12561217 -0.13520615 -0.3636747 -0.16062829
000030 ee 47 29 be f1 bb f1 bd fb ab be bb ae 7d 01 be
       -0.16531345 -0.11803425 -0.0058188415 -0.12645599
000040 99 94 ac bd 53 03 ae be e3 dc 4a 3c af d7 b9 bb
       -0.0842678 -0.3398691 0.012381765 -0.0056714634
000050 94 8a 22 be 01 d6 dd bd 81 f6 bd bd d2 b7 7e be
       -0.15873176 -0.10831834 -0.092755325 -0.2487481
000060 6c 3a c7 bc 40 6b 0c be e1 4f 26 3d 73 87 35 bd
       -0.02431985 -0.13712788 0.040603522 -0.044318628
000070 c6 be bb bd f1 68 1c be 24 b0 86 be 79 be 6b 3d
       -0.091672465 -0.15274407 -0.2630626 0.057554696
000080 8e 9c 18 bc 1d f5 eb bc 51 8b d8 3c 4f 7e 4a bd
       -0.009314669 -0.028803403 0.026433619 -0.049436864
000090 98 8f 68 3e 0c 58 fe bd 64 86 9d bc 03 5f 44 be
       0.22711027 -0.12419137 -0.019229122 -0.19176869
0000a0 fe ed 33 be e7 85 84 bd 94 2b 7d be 07 34 02 be
       -0.17571256 -0.06470852 -0.24723655 -0.1271516
0000b0 7c 43 97 bd c0 9e c9 be e0 27 0c 3d f5 71 bd bd
       -0.073859185 -0.3937893 0.034217715 -0.09250251
0000c0 89 8f 44 be 94 e2 16 bd bd a0 99 be 19 64 1a be
       -0.1919538 -0.036837175 -0.30005446 -0.15077247
0000d0 87 12 64 bd b7 cc 98 bd 6e ca b7 bd 97 1d 5a bd
       -0.05568173 -0.07460921 -0.08974157 -0.053250875
0000e0 4d b2 6c be 2c 76 50 be 44 9a a4 bd 64 1a b2 bd
       -0.23114891 -0.20357579 -0.08037236 -0.0869644
0000f0 99 f5 50 be 68 8c 49 bd ea a3 b4 3c 19 db e5 3c
       -0.20406188 -0.049206167 0.022050817 0.028058575
000100 fd ad a8 bd f4 61 0b be ce 16 8a 3c 6a 91 0f be
       -0.08236311 -0.13611585 0.016856577 -0.14020315
000110 3a 36 52 be 02 15 82 bd 11 71 66 3d 1b 47 14 be
       -0.20528498 -0.06351663 0.056260172 -0.1448025
000120 71 68 3d be 81 97 12 be 4e 58 28 bf 12 f4 81 bd
       -0.18496872 -0.14315607 -0.6575974 -0.06345381
000130 66 72 a7 bc f9 28 55 be f9 ca 5d bf ec 2d 83 bd
       -0.020440292 -0.20816411 -0.86637837 -0.06405243
000140 ba ac 21 bb 6c 8a b1 bd 06 05 42 3d d5 b7 7f 3d
       -0.0024669603 -0.0866898 0.047368072 0.062431175
000150 03 a3 cf bd ce e5 c4 bc 2b ba 7c bd 5b dc 44 be
       -0.10138514 -0.02403536 -0.06170098 -0.19224684
000160 7a 33 12 be a2 7b 15 bc 2e a8 d2 3c 72 99 8d be
       -0.14277449 -0.009123715 0.02571496 -0.27656132
000170 7e 69 1b be 45 9e f4 bd 6f 47 04 be 6d 4e 16 be
       -0.15176961 -0.1194425 -0.12917875 -0.14678355
000180 65 41 22 be a4 9b 2b be 93 f7 ae 3d 21 d4 49 be
       -0.15845259 -0.16758591 0.08543315 -0.19709827
000190 2a 42 64 bc a7 a0 07 be b0 1b fc be a0 ef 5f be
       -0.01393179 -0.13244878 -0.49239874 -0.21868753
0001a0 bd 5e 5a be e2 13 34 bd 6c 93 59 3d c2 20 10 be
       -0.21325202 -0.043964274 0.053119108 -0.14074996
0001b0 a3 8f 63 3d e1 1f 3a be a1 6d a7 be 08 46 4b bd
       0.055556905 -0.18176223 -0.32700828 -0.049627334
0001c0 fd ea 24 be ae a8 04 bf 1b 75 8f be ef fa 11 ba
       -0.16105266 -0.51819885 -0.28019032 -0.0005568703
0001d0 e1 d2 ad bd fe 44 2f be 62 0b 88 bd 85 1e 49 3d
       -0.084874876 -0.17116162 -0.06642796 0.04910137
0001e0 72 03 58 bc 35 12 80 bd 0b 98 a6 3d 07 ea f8 bd
       -0.013184415 -0.06253473 0.08134469 -0.12154012
0001f0 ed 81 35 bf 73 38 03 bd 5c 68 1e bd 32 00 0b be
       -0.70901376 -0.032036256 -0.038673744 -0.13574293
000200 f7 40 29 be 91 49 5c bd f7 36 78 bd 58 b2 2e bc
       -0.16528688 -0.053781096 -0.060599294 -0.010662638
000210 19 e5 11 3c 84 ec 3d bf 7f 9a ec bd 86 68 cb bd
       0.008904719 -0.7418902 -0.11552905 -0.09932046
000220 af d2 b1 bd 46 5f 46 be 74 48 95 bc d2 63 23 be
       -0.08682763 -0.19372281 -0.018223025 -0.15956047
000230 41 92 05 be ce 33 2c be 6e 80 b6 bd f3 c5 db 3c
       -0.13044073 -0.16816637 -0.08911215 0.026827788
000240 55 3a 3c be 8f c6 a6 3c 51 3f 78 bd 45 7c 67 be
       -0.18381627 0.020358352 -0.06060726 -0.22605999
000250 7e 92 df bc cc 5f 1a be cf 05 80 be 76 00 a9 be
       -0.027291533 -0.15075606 -0.25004432 -0.33008164
000260 34 64 87 bd 02 5a 43 be a2 c9 56 bc 1e 1d 4c bd
       -0.06610909 -0.19077304 -0.013109596 -0.049832456
000270 b9 65 72 be 9c c5 5f be 53 72 da be 4d a7 7f bd
       -0.23671617 -0.21852726 -0.42665347 -0.06241541
000280 86 44 dd bc 1a 17 25 be 96 62 72 3d 13 5c 35 3d
       -0.027010214 -0.16122094 0.05917605 0.044277262
000290 20 0b 30 3c 71 65 a4 be ae a9 ab 3b 94 b0 36 be
       0.01074484 -0.32108644 0.0052387333 -0.17840797
0002a0 79 c1 dc be 50 0a 84 be df 5e ae bd fb 0e 89 bc
       -0.43116358 -0.25789118 -0.08514189 -0.016730776
0002b0 6a 78 6c be 3f 34 aa bd d9 3e c4 bb 39 59 06 bd
       -0.2309281 -0.083107464 -0.0059889373 -0.032799933
0002c0 4f 6f eb 3d df 57 4b be ae 3e 53 bf 19 98 4c be
       0.1149584 -0.19857739 -0.82517517 -0.19979896
0002d0 ac 7f 25 bf 28 71 c8 ba d8 7c 07 be ca 79 1d bd
       -0.64647937 -0.0015292512 -0.13231218 -0.038446225
0002e0 cf e4 86 bd ff ef 8c be 7a a3 5a bd 8c a3 2c be
       -0.065866105 -0.27526852 -0.05337856 -0.16859263
0002f0 e3 9e b8 3d 4b f1 8d bb e1 e9 c9 3b a7 4c b5 bc
       0.0901468 -0.004331743 0.0061619137 -0.022131277
000300 fe fd 49 be f5 80 9d bd 78 7f de bd 84 e3 80 be
       -0.19725797 -0.07690612 -0.108641565 -0.2517358
000310 ba 7b 41 be 39 e6 b9 bd b4 f7 3f bd 0c dd 35 bd
       -0.18894854 -0.090771146 -0.046867087 -0.04440026
000320 84 7c 00 be e6 f9 d3 bd a6 a5 c6 bc 91 43 80 bd
       -0.12547499 -0.10350399 -0.02424891 -0.06262887
000330 a2 e0 9e be 9c a0 5e bd b7 63 4c bd df bf 4c be
       -0.31030756 -0.054352388 -0.049899783 -0.19995068
000340 2a 94 90 be 4e f4 fc bd 41 d5 b6 3c 87 8e 0e be
       -0.2823804 -0.12351285 0.022318484 -0.13921557
000350 c3 95 01 be 0a 44 9e be d6 06 e5 bd 2a 9d 6f be
       -0.12654786 -0.30911285 -0.111829445 -0.23399797
000360 de 62 8f 3d e2 24 b1 be b3 23 f8 bc cd 8b e1 be
       0.07001279 -0.34598452 -0.03029046 -0.44051972
000370 e6 2e 4f bb 63 3f 5b bd cb a8 97 be b0 33 01 be
       -0.0031613647 -0.053527247 -0.29620966 -0.12617373
000380 e5 b0 7b be 8e 21 ec ba 49 ad 70 be a2 07 e2 3c
       -0.24579199 -0.0018015371 -0.23503603 0.02759153
000390 6c 23 0a bd d4 45 8c bb da 05 1b be 1b f1 28 bc
       -0.033725187 -0.004280785 -0.15138951 -0.01031139
0003a0 69 9a 84 be ab 6c 64 be 26 9e 44 be 64 24 cf 3c
       -0.25899056 -0.22307079 -0.19200954 0.025285907
0003b0 91 fc 2e 3a c7 a1 ad bd b9 52 a3 be d3 7f 18 be
       0.00066752086 -0.08478122 -0.3189905 -0.14892511
0003c0 db 92 f8 bd 9e 8f 36 be 3c 69 fc bd 53 a4 50 be
       -0.121373855 -0.17828223 -0.12324759 -0.20375185
0003d0 5f 57 ac 3e ba 4a 30 39 52 a3 a3 bc 5d e1 77 be
       0.3366041 0.00016812506 -0.019975338 -0.24207063
0003e0 df bb 8a be a4 6a af bd 25 cd 0b bc 69 6d 54 be
       -0.2709646 -0.08565262 -0.008532797 -0.20744862
0003f0 6d 60 19 bd 81 cc 3b be c4 04 a5 be d0 83 c1 be
       -0.037445474 -0.18339731 -0.32230198 -0.37795877

network.2.bias f4 [784]
000000 c3 ba c1 be 5f 7f 0b bf 20 78 e8 be c2 8a 14 bf
       -0.378378 -0.5449123 -0.45404148 -0.5802423
000010 04 b0 04 bf 82 bb f2 be 47 0b f8 be f0 16 16 bf
       -0.5183108 -0.47408682 -0.48446104 -0.5862875
000020 db 23 14 bf d8 78 10 bf 39 b5 04 bf 7c dc fe be
       -0.5786721 -0.5643439 -0.51839024 -0.4977759
000030 67 ba 04 bf 77 8e 09 bf 95 55 0e bf 3b e1 02 bf
       -0.5184693 -0.5373301 -0.5559934 -0.51124924
000040 16 b0 0b bf 5d 9f 01 bf 87 97 00 bf 05 4c 04 bf
       -0.5456556 -0.50633794 -0.5023121 -0.51678497
000050 a3 c1 f8 be 9c d2 ed be 16 62 10 bf 5e d9 08 bf
       -0.48585233 -0.46449745 -0.5639967 -0.53456676
000060 c6 73 01 bf ba a1 07 bf 3d 67 ff be 6a 6a 14 bf
       -0.5056728 -0.5298115 -0.49883452 -0.57974875
000070 46 9f 0a bf 8d 94 c7 be 73 df f8 be e9 b5 04 bf
       -0.5414928 -0.38980523 -0.48607978 -0.5184007
000080 3e d6 fc be 4e d2 d5 be 42 2a e0 be 20 1b d3 be
       -0.49382204 -0.41762012 -0.4378224 -0.41231632
000090 0f d9 db be 44 a7 e0 be 49 0e 02 bf 2e 79 f0 be
       -0.4293904 -0.43877614 -0.5080305 -0.46967453
0000a0 b1 54 05 bf b2 4e 0c bf 7b af ed be ed 18 db be
       -0.52082354 -0.5480758 -0.46422943 -0.42792454
0000b0 74 d3 fb be 79 8b e0 be 7f ac 0d bf 73 8f 06 bf
       -0.49184763 -0.4385641 -0.55341333 -0.52562636
0000c0 98 17 f2 be 42 1e eb be 4f 02 f9 be 8b 08 dd be
       -0.47283626 -0.45921522 -0.48634574 -0.4317058
0000d0 62 53 0e bf da b3 d2 be 52 e1 ff be dd 72 00 bf
       -0.5559598 -0.4115284 -0.49976593 -0.5017527
0000e0 79 13 04 bf 26 d4 fb be b9 9d dc be 0e e4 0b bf
       -0.5159221 -0.49185294 -0.43089083 -0.5464486
0000f0 cd 09 fb be 47 84 e7 be 1c 7b 00 bf 66 ca 07 bf
       -0.49030915 -0.45218107 -0.5018785 -0.5304321
000100 8b 79 07 bf b1 7a f6 be a7 fd e0 be 10 59 ed be
       -0.52919835 -0.4814048 -0.4394352 -0.46357012
000110 29 66 ed be bb 10 02 bf 07 5c b9 be 6b aa e3 be
       -0.46367005 -0.5080678 -0.36203024 -0.44465956
000120 bf 5b d0 be 34 07 f2 be d3 0a 04 bf 4f 01 c9 be
       -0.40694997 -0.4727112 -0.51579016 -0.3925881
000130 a3 ed f8 be b6 bc 12 bf ad aa 00 bf 08 7e 04 bf
       -0.48618802 -0.573192 -0.5026043 -0.5175481
000140 3c 8f 01 bf f7 15 11 bf aa 81 1c bf 70 aa 07 bf
       -0.50609183 -0.5667414 -0.6113535 -0.5299444
000150 5a 60 fd be 13 64 f2 be 2c 9d d9 be 18 9f ef be
       -0.49487573 -0.47341976 -0.42502725 -0.46801066
000160 a2 4a f0 be 8f 8c ed be 11 84 07 bf 46 59 f3 be
       -0.4693194 -0.463963 -0.5293589 -0.47529048
000170 d0 5d da be 72 95 e3 be c4 7d c9 be 45 69 d2 be
       -0.42649698 -0.44449955 -0.39353764 -0.4109594
000180 a1 d8 b2 be 29 be c1 be 2d bd d0 be 4c e9 cb be
       -0.349309 -0.37840393 -0.4076933 -0.3982643
000190 43 e0 b4 be 0e a1 b0 be a4 f9 bb be 56 3f df be
       -0.35327348 -0.34497875 -0.36713898 -0.4360301
0001a0 bd 31 cb be e2 83 10 bf d2 4a e5 be 14 38 02 bf
       -0.39686385 -0.5645124 -0.44783646 -0.5086682
0001b0 fb 0f 05 bf de 06 fe be a9 b4 d6 be e6 46 f2 be
       -0.5197751 -0.49614614 -0.41934708 -0.47319716
0001c0 31 19 0f bf fb 2e 08 bf 0f 9f 00 bf 9a a2 15 bf
       -0.55897814 -0.53196687 -0.50242704 -0.58451235
0001d0 35 26 fb be 91 36 c1 be c2 5c c5 be f5 a2 f6 be
       -0.49052587 -0.37736943 -0.3854733 -0.481712
0001e0 df 28 df be da 69 cb be c9 10 a1 be 49 93 95 be
       -0.4358587 -0.39729196 -0.3145812 -0.29213932
0001f0 cc c9 74 be 7e 4a 8a be bc ca 88 be ed b0 4e be
       -0.23905104 -0.27009958 -0.26717174 -0.2018468
000200 d3 26 56 be cf ff 95 be a4 bc 92 be 4d 1a c2 be
       -0.20913248 -0.2929673 -0.28659546 -0.3791069
000210 db 16 a3 be 38 31 a2 be 10 49 e4 be 08 4b ee be
       -0.31853375 -0.31678176 -0.44586992 -0.4654162
000220 41 bd f5 be ec a5 08 bf 2a a1 f8 be ac 8e 13 bf
       -0.47995952 -0.53378177 -0.48560458 -0.57639575
000230 79 87 00 bf db ba 0a bf 4d 5f ec be ca 68 07 bf
       -0.50206715 -0.5419137 -0.4616646 -0.5289427
000240 0a ef ee be 4a c2 bc be 9e a5 c3 be db ff c2 be
       -0.46666747 -0.3686698 -0.38212293 -0.38085827
000250 8e 6d 9e be 78 2e 9f be 0f 37 7c be 5c c1 81 be
       -0.3094296 -0.3109014 -0.24630378 -0.25342834
000260 b5 aa 6f be de ba 1e be 2f 8a d4 bd 9d b1 e1 bd
       -0.23404963 -0.15500972 -0.10377919 -0.11020205
000270 67 58 1e be 4e 0a 61 bd 27 d3 47 be c9 18 5c be
       -0.1546341 -0.054941468 -0.19514142 -0.2149383
000280 86 c2 ac be df 76 a0 be ee d9 c7 be 8d 0e b8 be
       -0.3374216 -0.3134069 -0.39033455 -0.359486
000290 d2 89 cf be ec 28 f1 be 5a d1 f7 be 9d 83 f2 be
       -0.40534836 -0.47101533 -0.4840191 -0.47366038
0002a0 5f c7 ed be 21 99 04 bf 65 d1 ed be 60 00 0f bf
       -0.4644117 -0.51796156 -0.46448818 -0.5585995
0002b0 f1 9a d2 be 53 28 ea be ac f8 d4 be f6 15 b1 be
       -0.41133836 -0.4573389 -0.41595972 -0.34587067
0002c0 fd 82 98 be ae a0 80 be ad b5 5e be c6 9c 31 be
       -0.29787436 -0.2512259 -0.21748991 -0.1734496
0002d0 82 51 f9 bd 17 72 cd bc e1 6e ad 3b 02 59 4b 3d
       -0.121737495 -0.025078816 0.005292759 0.04964543
0002e0 45 9b 4b bc ad c4 9f bd c9 af c5 bd 3c 49 fe bd
       -0.012427156 -0.07801185 -0.09652669 -0.12416312
0002f0 2f 15 06 be 3d c5 8d be 2c a8 94 be 30 b7 b5 be
       -0.13094018 -0.27689543 -0.29034555 -0.35491323
000300 3c 71 f6 be 17 04 e6 be 24 d3 04 bf d1 2f f2 be
       -0.48133266 -0.44924995 -0.51884675 -0.47302106
000310 8c 50 06 bf 71 e1 09 bf 0f ec 0c bf 42 cb fd be
       -0.52466655 -0.5385962 -0.55047697 -0.49569136
000320 f3 c9 06 bf 72 25 e3 be e9 ec ab be 82 0d 9f be
       -0.526519 -0.44364506 -0.33579186 -0.31064993
000330 74 b0 98 be be f9 8c be a6 c8 b7 bd a8 d3 9b bd
       -0.29822123 -0.27534288 -0.089738175 -0.076087296
000340 1e 9d 8d bd 92 5a 68 bc c1 15 41 bd e5 c6 82 bd
       -0.06914733 -0.01418175 -0.047139887 -0.06385592
000350 86 8a 69 3d c1 a5 60 bc 5d 18 a4 bc 71 e9 9e bd
       0.057016872 -0.013711394 -0.020031149 -0.07759369
000360 b3 25 5b be 4f 19 7f be 90 1d 89 be ae 4f ac be
       -0.214011 -0.24911998 -0.26780367 -0.3365454
000370 f1 74 c4 be 16 bd ff be 9f 0c 04 bf 03 2e 02 bf
       -0.3837047 -0.4994895 -0.5158176 -0.5085146
000380 0d 94 14 bf b5 79 f2 be ab e3 cf be c4 30 d2 be
       -0.5803841 -0.4735848 -0.40603384 -0.4105283
000390 d9 bd d6 be b8 9d bc be 5b 0e bf be ef 5a 8d be
       -0.41941717 -0.3683908 -0.3731564 -0.2760844
0003a0 5b 51 9f be b7 c2 45 be 4c df d1 bd 73 ef 97 3b
       -0.31116757 -0.19312559 -0.102476686 0.004636699
0003b0 49 33 f2 3b e1 a0 2f 3b 32 4c ec bc 6c 38 c5 3b
       0.0073913676 0.0026798772 -0.028844927 0.006018689
0003c0 0a f8 9d 3c be a2 0d bd 06 75 b1 3c 9c c3 e2 bd
       0.019283313 -0.03457903 0.021662246 -0.11072466
0003d0 0c 15 0b be d9 88 89 be f9 d1 99 be 34 4f b4 be
       -0.13582247 -0.2686222 -0.3004301 -0.35216677
0003e0 1b 52 d2 be 9e 0f d1 be a7 2e 09 bf 56 4f 02 bf
       -0.41078267 -0.40832227 -0.5358681 -0.5090231
0003f0 b5 9c f3 be 9d 33 c9 be cf 69 04 bf 1c 5f f2 be
       -0.47580495 -0.3929719 -0.5172395 -0.47338188
