model/mnist_cgan_01_generator_epoch10.pt (torch, 884719 bytes, 4 tensors)

network.0.weight f4 [256, 74]
000000 01 81 86 3a a5 ee 1a bb 7d 84 cd b9 b9 94 a9 3a
       0.0010261835 -0.0023640778 -0.00039199358 0.0012938
000010 70 2f d4 3b 06 54 06 3b 84 84 a7 ba de a9 4d bb
       0.0064753816 0.002049686 -0.0012780582 -0.0031381766
000020 52 5c a4 3b 6c 8e fa 3a 0b 3a 50 ba 14 e8 7d 3a
       0.0050158883 0.0019115931 -0.00079432194 0.00096857664
000030 e0 b2 c3 3b cd 72 a7 3b 2c e7 8f 3b 50 aa a3 ba
       0.0059722513 0.005110121 0.0043915715 -0.001248667
000040 57 81 c2 ba 03 85 13 3a 4b 33 73 3b b0 93 b4 bb
       -0.0014839572 0.0005627425 0.003710943 -0.00551077
000050 d4 c9 d8 3a d6 96 2a bb 4c da 7b 3b ff a8 1d bb
       0.0016539642 -0.0026029847 0.0038429676 -0.0024057028
000060 97 83 82 3a 9a c0 97 ba c0 47 1f bb f2 90 83 3a
       0.000995743 -0.0011577785 -0.002430424 0.0010037704
000070 b4 ed 93 3b 70 45 75 3b ae 71 68 3b df ab 31 bb
       0.0045144204 0.0037425421 0.003546815 -0.00271105
000080 da 7b 75 ba 97 2a 57 3b e1 d5 e1 ba ab cf e4 3a
       -0.00093644636 0.0032831782 -0.0017229879 0.0017456909
000090 42 af 00 3b 17 bf 57 3a 0f 72 8f ba 66 f8 51 bb
       0.0019635712 0.0008230074 -0.0010944026 -0.0032038926
0000a0 7c 92 04 bb 96 43 aa b9 cb be 0e 3b 73 01 0f ba
       -0.0020228913 -0.00032475282 0.0021781202 -0.0005455233
0000b0 ea b6 c8 bb 0c 66 12 bb d7 80 b5 b9 a4 10 67 bb
       -0.0061253207 -0.0022338657 -0.00034619003 -0.0035257721
0000c0 8d af a9 ba d2 9a 84 bb 8c 0c 5f 3b b8 fc 90 bb
       -0.0012945995 -0.0040467763 0.0034034578 -0.0044246577
0000d0 16 08 0c 3b 5e 4e cc ba 14 a9 bf 3a f9 bf bc 39
       0.0021367124 -0.001558732 0.0014622533 0.00036001185
0000e0 ab 96 e2 39 8f f1 de ba 79 9f 67 3b d8 7b 01 3a
       0.00043218335 -0.0017009246 0.0035342856 0.00049394136
0000f0 ed 59 4b 3b 3c 83 04 3b 57 83 45 bb 58 7c 2a 3b
       0.0031028942 0.0020219823 -0.00301381 0.0026014056
000100 55 e1 13 be e0 ec 2f be 13 00 c9 bd 19 b9 d8 bd
       -0.14441426 -0.17180204 -0.09814467 -0.105821796
000110 d6 d2 e8 bd a1 a1 cf bd e1 d6 dc bd 0f 01 19 be
       -0.11368339 -0.1013825 -0.107831724 -0.1494181
000120 42 15 c5 bd 1d 55 02 be 26 77 08 3c a3 05 03 3c
       -0.09623195 -0.1272778 0.008329188 0.007996949
000130 ef ba 5e bc b1 56 fd 3b 5b 3e f2 3b 0a 47 47 bc
       -0.013594373 0.0077312817 0.0073926873 -0.012162933
000140 48 8f 25 ba 01 1b 0f bb eb eb 1e bc f2 24 64 3b
       -0.0006315601 -0.0021836164 -0.009699802 0.003481206
000150 11 9f 69 bc b1 10 a2 ba 38 2f b9 b9 5a ae 91 bb
       -0.014259116 -0.0012364594 -0.0003532113 -0.004445833
000160 41 f0 c3 3b 39 eb 1d 3c 9f ba 47 3a ff 02 1d bc
       0.005979568 0.009638601 0.0007619056 -0.009583234
000170 54 bd fc 3b 9d 28 ca 3b 39 7c e1 3b a6 f7 4e bb
       0.0077129994 0.0061693923 0.0068812636 -0.0031580715
000180 b8 ed 33 39 49 95 04 3c 4d 89 9e bb 4e 22 40 3b
       0.00017159327 0.008092233 -0.004838145 0.0029317322
000190 ec 1e 83 3b 34 58 16 bb 19 48 72 bb 62 73 df 3b
       0.004001489 -0.0022940757 -0.0036969243 0.0068191746
0001a0 be 86 16 3b e7 9a 06 bc 02 9a bf bb aa 87 99 bb
       0.0022968496 -0.0082156425 -0.0058472166 -0.004685362
0001b0 1b 5f 58 bb 2d 75 9c 3b 3a b4 02 bc bb 45 64 3c
       -0.0033015672 0.0047747106 -0.00797754 0.013932641
0001c0 c3 7f bc 3a 60 c7 fc 3b 7f e2 65 bb 57 03 77 ba
       0.0014381338 0.007714197 -0.003507763 -0.00094228
0001d0 f1 fa 8f bb ac 14 85 39 66 e1 ce bb 64 32 04 3b
       -0.004393928 0.0002538314 -0.0063134907 0.0020171637
0001e0 aa d4 df 3b be af 6a b9 ae 54 88 3b a1 ae 73 bb
       0.0068307715 -0.00022381448 0.004160485 -0.0037182944
0001f0 44 bd d6 3a 2b 00 e2 ba fb fe b8 3b 97 d2 5a 3c
       0.001638331 -0.0017242482 0.0056456304 0.013355873
000200 4d 98 ac 3b e6 e3 a8 ba 9e 21 bb ba ec 3d 02 3b
       0.005267179 -0.0012885302 -0.0014276986 0.0019873334
000210 56 f0 10 3b 6d 73 15 3c 06 60 b0 3b 44 15 2a 3c
       0.0022115908 0.009121758 0.0053825406 0.010381047
000220 7c da e9 bb c3 a6 82 bc 15 ff 88 be f6 29 75 be
       -0.007136641 -0.015948659 -0.26757112 -0.23941788
000230 a2 d2 dc bd 17 4c d4 bd 87 b5 00 be 93 1f 72 be
       -0.107823625 -0.103660755 -0.12569247 -0.23644857
000240 b9 b4 12 be c9 1b 53 be fb 55 52 be 7c a3 cf bd
       -0.14326753 -0.20616068 -0.20540611 -0.10138604
000250 33 5f b3 bb 73 a9 ac 3c 1f ea 15 3c 2e e0 c9 3c
       -0.005473995 0.021076893 0.009150057 0.02464303
000260 b3 35 7a bb 37 c4 94 3b db d5 ee 3b 15 62 cf 3b
       -0.003817898 0.004539992 0.007288677 0.006328831
000270 e7 f1 ed 3a 88 63 eb ba 34 83 74 3c 9f bd c1 3a
       0.0018153758 -0.001795874 0.014923859 0.0014781243
000280 91 08 7d 3b 65 9f 20 3b ee dc 4c 3c 50 79 17 3c
       0.0038609842 0.002450907 0.012503846 0.009245232
000290 4f 35 1f 3b be 72 41 3b cc d1 4f bc 0d fd 6c ba
       0.002429325 0.0029517855 -0.012684297 -0.0009040393
0002a0 43 ad 05 3c 28 96 82 39 9a 39 a0 bc 59 c4 cc ba
       0.008158985 0.00024907407 -0.019558717 -0.0015622481
0002b0 c3 32 57 bc db ec 89 3b cc 57 1a 3b df fd 37 3c
       -0.013134661 0.0042091436 0.0023550866 0.011229961
0002c0 f0 f7 a9 bb 43 71 31 38 7c e6 45 bc 69 0d 87 3a
       -0.005187027 4.230557e-05 -0.012078878 0.0010303679
0002d0 4b cb ad 3b 1c 0e 07 3c b0 b9 7b bc b6 74 15 bb
       0.0053037754 0.00824311 -0.015364096 -0.002280516
0002e0 63 9c b5 b9 cc e8 f8 3b 2f 2d 93 bb 24 5d 8f 3b
       -0.00034639527 0.007596111 -0.0044914703 0.004375117
0002f0 1c c5 bd bc f3 64 b2 3a 3d a2 f3 bb 0c 72 52 bc
       -0.023165278 0.0013610407 -0.007435112 -0.012844574
000300 c7 69 c1 bc ad 0f 88 bb 57 24 07 3b 2c 99 0a bb
       -0.023610009 -0.0041522593 0.0020621025 -0.0021148426
000310 15 8b 47 bc 3e b6 e8 b9 de 28 7a 3b 83 6e 04 3c
       -0.012179156 -0.0004438627 0.0038171331 0.008082989
000320 9c 2b ae 37 06 28 88 3c d6 85 8b bb 50 e6 b9 bb
       2.0762724e-05 0.016620647 -0.004257898 -0.0056732073
000330 81 97 3b 3c fb a1 1c bc f0 7f 24 bc b5 18 a8 bb
       0.011449696 -0.0095601035 -0.010040268 -0.0051298984
000340 d6 cf 22 bb 27 64 cf bb 31 09 2e bc 04 8d e3 bc
       -0.0024843118 -0.0063290778 -0.010622309 -0.027777202
000350 28 05 4c be 28 14 5d be d7 2d 5f be 3d 0a 65 be
       -0.19923842 -0.2158972 -0.2179483 -0.22367187
000360 d7 0d 3a be 0b 2b 67 be c0 de 1c be 8d d5 30 be
       -0.18169342 -0.22575013 -0.15319347 -0.17268963
000370 74 b5 fb bd 1a 7c 1d be c8 43 34 bc ec 4a a2 3b
       -0.12290469 -0.15379372 -0.011002488 0.004952779
000380 b1 ce 73 bb 26 12 12 bc fb 28 42 3a 7c 2e 75 3c
       -0.0037202055 -0.00891546 0.0007406619 0.014964696
000390 fe 5e 10 3b 14 3f 3b bb 46 38 c3 3b 7f 67 bd 3c
       0.0022029276 -0.0028571533 0.005957636 0.02312064
0003a0 53 c5 0c bc 07 e6 47 bc dd 1d 77 bb 60 33 59 38
       -0.008591968 -0.012200839 -0.003770701 5.178468e-05
0003b0 bb eb cf 3b 70 e8 3b 3a 0b 1a af bb 7e 41 56 3c
       0.00634524 0.000716812 -0.0053436807 0.013077138
0003c0 87 99 cc bb f6 55 b3 3b 49 8e 8f 3c 5a cc 33 bb
       -0.006243888 0.005472894 0.017523902 -0.0027435035
0003d0 b4 a7 21 bc f2 0a 9d bb 0f 91 03 bc 35 cd 05 3c
       -0.009866644 -0.0047925645 -0.00803019 0.008166601
0003e0 20 69 c7 3b 90 fe c2 3b f5 a3 58 bc 14 45 93 3b
       0.00608553 0.0059507564 -0.013222684 0.0044943187
0003f0 69 82 9c 3b 39 30 2a bc 4b 63 a4 ba bf a2 ab bb
       0.0047762883 -0.010387474 -0.0012541799 -0.0052379067

network.0.bias f4 [256]
000000 9c b6 31 3b b7 65 e0 bd 93 53 26 be c8 b0 2b be
       0.00271169 -0.109569006 -0.16242819 -0.16766655
000010 6f a6 02 be 62 18 01 be 83 5b 67 be cf 6c 70 be
       -0.12758802 -0.12606958 -0.22593503 -0.23479007
000020 14 c4 d9 bd 84 1c e0 bc e4 05 42 be bd db 52 be
       -0.10633102 -0.027357347 -0.1894756 -0.20591636
000030 a5 45 d5 bd d8 b2 79 3c 17 70 b6 bd 6b 73 8b be
       -0.10413674 0.015240394 -0.08908098 -0.27236494
000040 a0 d5 02 be 39 47 0e be 53 25 9a bd 46 27 fe bd
       -0.12776804 -0.13894357 -0.0752665 -0.124098346
000050 d7 8b 4d be aa 4e e6 bd 77 fb 7c bd 9c a7 d2 bd
       -0.20072876 -0.11245473 -0.061763253 -0.10285875
000060 e3 82 b8 bd cf d6 03 be 8a 2c 76 bd 98 0f 51 be
       -0.0900934 -0.12874912 -0.06010107 -0.20416105
000070 c1 8b 17 be ae ed ec bd 9f f3 9a bd 6b 64 56 be
       -0.14799406 -0.11568771 -0.07565998 -0.20936744
000080 9e a7 4e be 8e 40 24 be 79 fa 8c be 19 9e 24 be
       -0.20181128 -0.1604025 -0.27534845 -0.16075934
000090 57 6d 64 be 24 ba d4 bd 0a e2 8d be 9c 72 31 be
       -0.22307335 -0.10387066 -0.27711517 -0.17328876
0000a0 5b f5 4a be 47 64 87 be 1d b6 30 be 48 c5 2a be
       -0.19820158 -0.26443693 -0.1725697 -0.1667682
0000b0 8d b7 b3 bd c4 fe 32 be 0e ce 0d be 47 10 df bd
       -0.08775244 -0.17479998 -0.13848135 -0.108917765
0000c0 50 5c 4a be d0 c4 7a bd 71 29 1d be bf 0f ba bd
       -0.19761777 -0.06122285 -0.1534784 -0.090850346
0000d0 1b 81 db bd 69 b2 65 be c8 dd fc bd ab 74 55 be
       -0.10717984 -0.2243134 -0.12346989 -0.20845287
0000e0 1f 9b d6 bd f3 0d 14 be 4e ec 15 be 03 25 c8 bd
       -0.10478806 -0.14458446 -0.14640924 -0.097726844
0000f0 1f ed 92 be 34 81 14 be f3 32 c8 bd 70 54 69 be
       -0.28696534 -0.14502412 -0.09775343 -0.22786117
000100 e4 2c 0a be 11 b8 57 bd cb 82 85 be dc 4d 8a be
       -0.13493687 -0.052665774 -0.2607635 -0.27012527
000110 73 0f fc bd 3e 4d 35 be 11 b1 28 be db 8c 38 be
       -0.12307634 -0.17705247 -0.16473795 -0.18022482
000120 e9 75 3b be 9c db d2 bc 02 eb 31 be ed 49 66 be
       -0.18306698 -0.025739484 -0.17374805 -0.22489138
000130 11 b4 17 be 22 c5 6e be 7e 3b bf 3e 14 72 9a bd
       -0.14814784 -0.23317388 0.37350076 -0.0754129
000140 45 6f 11 be 33 4a 45 be 81 6a 17 be 59 c2 4a be
       -0.14202602 -0.19266586 -0.14786722 -0.198007
000150 ad ac b9 bd 91 76 20 be 54 80 08 be b5 14 76 be
       -0.090661384 -0.1567023 -0.13330203 -0.24031337
000160 96 c4 c3 bc 6a 9e bc bd 24 96 e6 bd e8 12 27 bd
       -0.02389745 -0.092099026 -0.11259106 -0.040789515
000170 b5 62 1c be 51 f6 e2 bd e6 41 3b bd 48 c8 0e be
       -0.15272029 -0.110821374 -0.045717143 -0.13943589
000180 21 bf 34 be 36 93 04 be 63 60 55 be 9a de 4e be
       -0.17651035 -0.12946782 -0.2083755 -0.20202103
000190 51 02 2a be f8 5b 52 be 0a 54 4e be 3d d4 13 be
       -0.16602446 -0.20542896 -0.20149246 -0.14436431
0001a0 94 66 10 be 25 74 aa bd cf f9 97 bd 12 b5 12 be
       -0.1410163 -0.08322934 -0.07420694 -0.14326885
0001b0 1f e7 63 be 60 34 09 be 2a 40 0e be 39 a5 41 be
       -0.22256134 -0.13398886 -0.13891664 -0.18910684
0001c0 71 90 03 be be 16 97 bd 93 13 2f be 7b f8 ce bd
       -0.12848069 -0.073773846 -0.1709731 -0.10105988
0001d0 80 5b c4 bd e3 fb 24 be 47 d0 04 be c1 af a6 bd
       -0.09587765 -0.16111712 -0.12970077 -0.08138991
0001e0 90 0a 06 be f0 9f 84 be 2f 0c 62 bd 6c 00 3d be
       -0.13089967 -0.25903273 -0.0551874 -0.18457192
0001f0 25 97 b2 3d 5d e8 42 be 85 2d 41 be 54 2a cd bd
       0.08720235 -0.19033952 -0.1886502 -0.10017839
000200 b0 9d 41 be 4f 4c 54 be b3 21 4d be d7 f8 f1 bd
       -0.1890781 -0.20732234 -0.20032386 -0.118150406
000210 af b9 5a be f1 2e b7 3d d3 bb 05 be 8e 23 57 be
       -0.21359895 0.089445 -0.1305993 -0.21009657
000220 3a b4 c9 bd a9 8f 28 be 18 d3 4a be 26 66 20 be
       -0.098488286 -0.16461052 -0.19807088 -0.15663967
000230 1a c4 18 be 03 4f 20 be ff 06 c9 bd eb a3 70 be
       -0.14918557 -0.1565514 -0.098157875 -0.2350003
000240 70 9e 49 be da 3d 96 bd e0 7a 5b be da 1d 61 be
       -0.19689345 -0.07336016 -0.21433592 -0.21984044
000250 3e 1f 12 be 58 c4 e6 bd b1 8c cf bd 97 21 33 be
       -0.1426973 -0.11267918 -0.10134257 -0.17493282
000260 9f 3d 0a be 42 eb 5b bd bb d2 b1 bd d3 0b 2e be
       -0.13500069 -0.053691156 -0.08682772 -0.16996698
000270 e2 e4 7a be e0 77 34 be 92 1f 5c be 48 0f 6c be
       -0.24501374 -0.17623854 -0.21496418 -0.23052704
000280 00 12 3f be 95 af b3 bc 9b b9 6f 3d a8 2f 81 be
       -0.1865921 -0.02193431 0.058526617 -0.2523167
000290 18 e0 1a be 25 20 12 be 91 d4 53 be cb 5e ed bd
       -0.15124547 -0.14270075 -0.20686556 -0.11590346
0002a0 96 ef 42 be 5c 84 d2 bd ae 4c 87 bd 0b b7 b2 bd
       -0.19036707 -0.10279152 -0.06606422 -0.08726319
0002b0 f9 f6 f7 bd 98 98 45 be 68 02 32 be 65 8e 56 be
       -0.12107653 -0.19296491 -0.1738373 -0.20952757
0002c0 73 f4 97 bd d7 2c 37 be 5b 25 29 3e 15 80 8c be
       -0.07419672 -0.17888199 0.16518156 -0.2744147
0002d0 2b 7b 2c bd c4 81 dc bd ae cf a4 be b0 8d 1b bd
       -0.04210965 -0.10766938 -0.32189697 -0.03797692
0002e0 ac f9 0e be 71 cc b2 bd 2f 8e 34 be 9f a6 cb bd
       -0.1396243 -0.087304 -0.17632364 -0.0994389
0002f0 bb 5c b1 bd 36 f6 05 be a3 7f c2 bd 67 e0 4a be
       -0.08660265 -0.13082203 -0.09497001 -0.19812165
000300 fe 79 3b be 00 24 86 be a6 dd e5 bd a8 4c 52 be
       -0.18308255 -0.2619934 -0.11223917 -0.20537055
000310 cc 13 85 be ed ad ad bc 70 7d 03 be 0a 63 98 bd
       -0.25991666 -0.021201098 -0.1284082 -0.07440765
000320 40 6d 1a be 93 37 16 be f7 c6 13 be e7 81 c0 bd
       -0.15080738 -0.14669637 -0.14431368 -0.09399777
000330 49 1c 2c be a5 70 63 be bd 07 00 be 9d 5d 01 be
       -0.16807665 -0.22210939 -0.12502952 -0.12633367
000340 87 70 2a be f0 50 28 be c1 4f 94 be 1e 46 22 be
       -0.16644488 -0.16437125 -0.28967097 -0.1584706
000350 da da c6 bd 62 5b 49 be 13 99 5b be 41 c3 3d be
       -0.097097114 -0.19663766 -0.21445112 -0.18531515
000360 f2 e4 2d be 28 90 21 be 50 10 57 be 7b 17 db bd
       -0.16981867 -0.15777647 -0.21002316 -0.10697838
000370 3e 5b e0 bd d5 0e 22 be c1 74 41 be 8f 7c 70 be
       -0.10954903 -0.1582597 -0.18892194 -0.23485015
000380 6e be da bd 32 17 61 be 81 cb f2 bd 5e ee c0 bd
       -0.10680853 -0.21981505 -0.118552215 -0.09420465
000390 c2 ae 80 be f2 b6 5b be 1a 6e 03 be 79 14 e4 bd
       -0.2513333 -0.21456507 -0.12834969 -0.11136717
0003a0 c9 ae 81 be 55 e7 81 be 9a 95 e7 bd 01 ee c8 bd
       -0.25328663 -0.25371805 -0.11307831 -0.09811021
0003b0 33 79 f8 bd 06 b0 0a be f5 cc fe bd 42 bc 31 be
       -0.12132492 -0.1354371 -0.12441436 -0.17356971
0003c0 b3 b1 54 bd 63 81 4c be 9d df 08 be 84 5c 29 be
       -0.05192728 -0.19971232 -0.13366552 -0.16539198
0003d0 84 47 0e be 91 b7 3a be 1f 60 7f be 68 b9 33 be
       -0.13894469 -0.18234088 -0.24939011 -0.17551196
0003e0 5f 60 69 be 22 c4 55 be 78 37 25 be f5 27 22 be
       -0.22790669 -0.208756 -0.16134441 -0.15835555
0003f0 03 73 37 be b8 3b 04 be 8e 34 15 be 7a 1d 61 be
       -0.17914967 -0.12913406 -0.1457083 -0.219839

network.2.weight f4 [784, 256]
000000 7d 5c 7e bd 88 12 30 3d 2e 83 2e be 9f 19 94 be
       -0.062099922 0.042986423 -0.17042229 -0.28925797
000010 62 f9 32 be a0 af 1c bf 04 27 9d bd 72 d0 c8 bd
       -0.17477944 -0.6120548 -0.07673457 -0.09805383
000020 fc d7 40 be 72 29 d2 be f1 1c bb be e2 b3 cf be
       -0.18832392 -0.41047245 -0.36545518 -0.40566927
000030 65 49 29 be a7 df 89 be 6b b8 be bb 6f 85 01 be
       -0.16531904 -0.26928446 -0.005820324 -0.12648557
000040 47 95 ac bd 43 f1 b8 be e3 dc 4a 3c 54 4e 8b 3e
       -0.0842691 -0.36121568 0.012381765 0.27208197
000050 6c 6e 1e be 29 fa de bd 01 4c d2 be 7d b2 ca be
       -0.1547181 -0.10887558 -0.4107361 -0.395893
000060 67 71 a6 bd 45 dc 0f bf e1 4f 26 3d f6 66 54 be
       -0.081270985 -0.5619548 0.040603522 -0.20742401
000070 9c c2 bb bd 38 57 a9 bd 01 4f b3 be cc 71 c1 bd
       -0.09167978 -0.08268589 -0.35021213 -0.09445533
000080 94 21 1b bc d9 fa eb bc 59 73 dd 3c 2b 5f 19 be
       -0.009468455 -0.028806137 0.027032541 -0.1497771
000090 2f 1f 66 3e fe ec 68 be e1 e5 26 be 71 ec a5 be
       0.22472833 -0.22746655 -0.1629863 -0.32406953
0000a0 3a ff 01 be 4d a9 80 bd 40 c1 0d bf c0 5d f2 be
       -0.12695017 -0.062822916 -0.55373 -0.4733715
0000b0 79 52 97 bd 93 8a 08 bf ac 24 0c 3d ad 76 82 be
       -0.07388777 -0.5333645 0.03421466 -0.25481167
0000c0 a4 45 a0 be 6e c2 11 be 48 f0 99 be a6 22 ad be
       -0.31303132 -0.14234325 -0.30066133 -0.33815497
0000d0 9e 4a 80 be 60 80 17 bd c2 cc 2c be 9a 2f 5a bd
       -0.25056928 -0.036987662 -0.16874984 -0.053268053
0000e0 15 da 66 be ed 7f 50 be 21 73 96 be 2f 1b b2 bd
       -0.22544129 -0.203613 -0.2938471 -0.08696591
0000f0 15 3f 01 bf 68 8c 49 bd 23 d0 18 be 65 18 e4 3c
       -0.5048688 -0.049206167 -0.14923148 0.027843663
000100 ec 8c 75 be 37 b3 0b be dd b3 a8 ba fe 96 0f be
       -0.23979539 -0.13642584 -0.0012870986 -0.14022443
000110 8c f6 5e be ad cf 90 bd 5c 26 9b bd 2b b6 e0 be
       -0.21773738 -0.07070861 -0.07575676 -0.43888983
000120 e1 88 a9 be 35 b5 89 be a8 d4 4d bf 07 c2 e0 bd
       -0.33112243 -0.26896062 -0.8040261 -0.10974508
000130 66 72 a7 bc 41 11 eb be 94 45 e3 bf b9 bd 61 be
       -0.020440292 -0.459116 -1.7755609 -0.2204503
000140 de 53 bb be 15 ed 83 be 2c 09 09 3e 31 49 ab 3d
       -0.36587423 -0.25766817 0.13382405 0.083635695
000150 e7 e2 e3 be 9d 9b b2 be 3b 94 31 be 59 89 4e be
       -0.4450905 -0.3488435 -0.17341702 -0.20169581
000160 1e 3c c4 3c a2 7b 15 bc bc d2 d0 3c 60 a6 8d be
       0.023954447 -0.009123715 0.025491111 -0.27665997
000170 f4 ce 6c be 47 56 9b be 1b 46 d9 be 86 45 c4 be
       -0.23125821 -0.30339262 -0.424363 -0.38334292
000180 19 46 23 be 84 33 66 be ae da ae 3d 50 d4 49 be
       -0.15944709 -0.22480589 0.085378036 -0.19709897
000190 7c 60 64 bc 99 fd 07 be 7e 90 7d be db e7 92 be
       -0.013939019 -0.13280334 -0.2476215 -0.28692517
0001a0 35 82 5b be 8f ee 74 be 3a 9a a8 be b9 35 aa be
       -0.21436389 -0.23919128 -0.32930166 -0.33244112
0001b0 a3 8f 63 3d fe a0 1b be 35 14 a8 be 68 de 98 be
       0.055556905 -0.15198132 -0.32827917 -0.29857183
0001c0 3d fd 24 be d1 fe 3f bf 14 8f 8f be ef fa 11 ba
       -0.16112228 -0.74998194 -0.28038847 -0.0005568703
0001d0 96 f7 11 be c6 97 d4 be 1a c2 90 be 85 1e 49 3d
       -0.14254603 -0.41522044 -0.28273088 0.04910137
0001e0 4f ca 80 bc 89 24 80 bd af a3 93 be d0 36 f9 bd
       -0.015721468 -0.062569685 -0.28835818 -0.12168658
0001f0 6a e1 91 bf 68 63 18 bd 6b 06 1f bd e7 a6 c8 be
       -1.1396916 -0.037204176 -0.03882448 -0.39189836
000200 17 d4 fb be 5f 57 7a bd cb 56 95 be 42 d9 66 bd
       -0.4918525 -0.06111848 -0.2916778 -0.056359537
000210 19 e5 11 3c 3a 0b 99 bf 7b f6 34 be aa 0b 0e bf
       0.008904719 -1.1956551 -0.1767215 -0.5548655
000220 3b 06 03 be 74 a8 46 be 99 47 9e bc 8a f1 d7 be
       -0.12795345 -0.19400197 -0.01932125 -0.42176467
000230 0f 3d f5 be f2 af fc be ee 67 c8 be 0c f3 d4 3c
       -0.47898147 -0.49352986 -0.39141792 0.0259948
000240 c5 6a 0a bf b9 99 34 be 1a a3 a2 be 92 fd ce be
       -0.5406917 -0.17636766 -0.31765062 -0.40427834
000250 e0 e2 88 be 1a ec 7b be 8f fb 0e bf 0e 86 b6 be
       -0.26735592 -0.24601784 -0.558526 -0.3564915
000260 ac 1e 96 be b3 52 4b be 62 ed 56 bc f7 14 9a be
       -0.29320276 -0.19855766 -0.01311812 -0.3009412
000270 a1 80 75 be e2 d4 5f be 2c 03 f3 be 4d a7 7f bd
       -0.2397485 -0.21858552 -0.47463357 -0.06241541
000280 ed 3e 47 be fb f5 71 be 32 2e 96 bc 3e d7 48 bd
       -0.19457598 -0.2362899 -0.018332575 -0.049033396
000290 ad a1 aa bd 13 d4 ab be 91 27 13 3b d7 6e 36 be
       -0.083316185 -0.33560237 0.0022454003 -0.1781572
0002a0 2f f6 09 bf 65 0a 84 be ba dc a7 be 16 b1 21 be
       -0.5389127 -0.2578918 -0.32785589 -0.15790209
0002b0 c4 7e 6c be 5d 42 61 be 7d 08 2c be 63 5a 06 bd
       -0.23095232 -0.21997972 -0.16800113 -0.032801043
0002c0 02 f9 41 bc 29 a7 56 be 25 81 c5 bf ad 8a 4d be
       -0.011839153 -0.20962204 -1.5430037 -0.20072432
0002d0 cf 79 60 bf 27 bb c8 ba c4 90 08 be ca 79 1d bd
       -0.87685865 -0.0015314565 -0.13336474 -0.038446225
0002e0 88 e8 86 bd 08 b9 af be 16 e4 c1 bd d2 fc 49 be
       -0.065873206 -0.34320855 -0.09467332 -0.1972535
0002f0 09 9c b8 3d 1c 66 38 3e 39 10 5b be 9d 2d c7 be
       0.09014136 0.18007702 -0.21392907 -0.38901988
000300 80 86 0e bf 6e 90 9d bd 33 50 2a be 14 5d fb be
       -0.5567398 -0.076935634 -0.16632156 -0.4909445
000310 f3 02 46 be a6 1e 8d be 14 e7 7e bd 68 dd 35 bd
       -0.19337063 -0.27562445 -0.062232092 -0.044400603
000320 2d 85 ca be 67 2f 1f be 58 d7 ce bd 5b 43 8c bd
       -0.3955473 -0.15545426 -0.10099667 -0.068487845
000330 14 fc 9e be 49 c8 5e bd fd da 5d be 7e cc 14 bf
       -0.31051695 -0.054390226 -0.21665569 -0.5812453
000340 ce 75 cb be 42 07 31 be 12 fa 36 bc 57 03 e6 be
       -0.39738315 -0.17287925 -0.01116802 -0.44924423
000350 de 81 ee be 41 9f 9e be c5 d6 b0 bd 2e 06 4d be
       -0.46583456 -0.30980876 -0.08634714 -0.20021889
000360 39 ac 62 bd b1 aa e6 be b3 23 f8 bc d4 9b 32 bf
       -0.055340026 -0.45052102 -0.03029046 -0.69769025
000370 e6 2e 4f bb b3 5e 7d be 06 4b bd be 5b cd 7e be
       -0.0031613647 -0.24743156 -0.369713 -0.24883024
000380 83 59 b0 be 9a c9 4c bd 51 c9 70 be a2 07 e2 3c
       -0.34443292 -0.04999695 -0.23514296 0.02759153
000390 ef b9 f7 bc 81 56 8c bb 61 f0 03 bf 1e 3a 8b be
       -0.030240027 -0.004282773 -0.51538664 -0.27192777
0003a0 0e 05 1c bf 3f 23 83 be f5 57 c0 3d 1d 49 55 be
       -0.6094521 -0.25612828 0.093917765 -0.20828672
0003b0 2f 6c 61 3e c3 c1 b0 bd 4d 56 a3 be a1 72 19 be
       0.22013925 -0.08630707 -0.3190178 -0.14985134
0003c0 7d 5d f9 bd ef ff 06 bf ef ef 97 be 5d e4 b6 be
       -0.121760346 -0.52734274 -0.29675242 -0.35721102
0003d0 16 bc ab 3e 71 fa d0 bb 6f 9d a3 bc d1 ee 77 be
       0.33541936 -0.006377511 -0.019972531 -0.24212195
0003e0 9e 1c af be 27 a2 7e be 5f fa f2 bd 09 77 54 be
       -0.3420152 -0.24866544 -0.11864161 -0.20748533
0003f0 6a 00 0b bd 08 54 c1 be ba 32 a5 be 59 37 fe be
       -0.03393594 -0.37759423 -0.32265264 -0.49651602

network.2.bias f4 [784]
000000 79 44 85 bf 16 21 a2 bf d8 1b 69 bf d4 64 a2 bf
       -1.0411521 -1.2666347 -0.9105811 -1.268702
000010 e3 2b 99 bf 1d b1 96 bf 6b 57 95 bf e2 c5 a1 bf
       -1.1966518 -1.1772801 -1.1667303 -1.2638514
000020 c7 ad be bf a8 d6 92 bf 93 19 a5 bf 56 50 8b bf
       -1.4896783 -1.1471758 -1.289843 -1.0883892
000030 88 5f 7d bf c4 3d 97 bf e2 30 96 bf da ee 93 bf
       -0.98973894 -1.1815724 -1.1733668 -1.1557267
000040 37 9b 93 bf d3 4f 8b bf 82 ba 96 bf 8f 86 8d bf
       -1.1531743 -1.0883735 -1.1775668 -1.1056689
000050 b4 28 a7 bf ff d7 85 bf 01 dc 9a bf 9c a0 9a bf
       -1.3059297 -1.0456542 -1.209839 -1.2080264
000060 c0 ea 90 bf 04 8b 87 bf a7 43 9a bf 34 38 86 bf
       -1.132164 -1.0589299 -1.2051896 -1.0485902
000070 b7 26 90 bf 2c 67 82 bf 8a 1c 87 bf 47 6f 97 bf
       -1.1261815 -1.0187736 -1.0555584 -1.1830834
000080 c8 01 81 bf 25 e4 7d bf ad cb 8a bf d9 82 95 bf
       -1.0078669 -0.99176246 -1.0843407 -1.1680557
000090 31 66 9b bf fa 96 8b bf 01 ee 88 bf d1 7d 83 bf
       -1.2140561 -1.0905449 -1.0697633 -1.0272771
0000a0 fc ab 78 bf c9 f5 7a bf 99 5f 8e bf 0e 9b 84 bf
       -0.9713743 -0.9803129 -1.1122924 -1.0359819
0000b0 3c 86 90 bf c7 df 85 bf 60 4d 96 bf 41 0f 9d bf
       -1.1290965 -1.0458916 -1.1742363 -1.227028
0000c0 39 04 89 bf 5d e0 7d bf 31 d4 83 bf 47 21 93 bf
       -1.0704414 -0.99170476 -1.0299131 -1.149453
0000d0 de 2c 99 bf 08 e2 62 bf 72 5e 95 bf 7d 2f 80 bf
       -1.1966817 -0.88626146 -1.1669447 -1.0014492
0000e0 b4 36 92 bf 19 7f a6 bf 9c 72 9c bf f0 67 9e bf
       -1.1422944 -1.3007537 -1.2222476 -1.2375469
0000f0 1f 35 86 bf ef fe 95 bf 94 68 83 bf 7c 00 93 bf
       -1.0484961 -1.1718425 -1.026629 -1.1484523
000100 e9 4e 97 bf bd 79 83 bf e5 d5 85 bf ef 0b 89 bf
       -1.1820956 -1.0271527 -1.04559 -1.0706767
000110 ae a3 6c bf 97 ae 63 bf ca db 4c bf 40 53 68 bf
       -0.92437255 -0.8893828 -0.8002287 -0.9075203
000120 68 78 63 bf be 98 73 bf 67 ef 74 bf 34 15 6b bf
       -0.888556 -0.9515494 -0.956778 -0.9182923
000130 4d d6 85 bf 4e 4e 90 bf 80 5a 98 bf c0 3a 95 bf
       -1.0456024 -1.1273897 -1.1902618 -1.1658554
000140 04 b7 90 bf 29 b5 95 bf 76 cd 8b bf 30 f5 9c bf
       -1.1305852 -1.1695911 -1.0922077 -1.2262325
000150 2f 70 85 bf 93 06 96 bf 6c cb 82 bf f6 08 95 bf
       -1.0424861 -1.1720756 -1.021833 -1.164336
000160 1a fe 9e bf 67 b3 84 bf 8c cb 8f bf 0a bd 84 bf
       -1.2421296 -1.0367249 -1.1233993 -1.037019
000170 d1 a3 68 bf a2 2b 6c bf ae 75 54 bf 1a 22 48 bf
       -0.90874964 -0.9225408 -0.82992065 -0.78177035
000180 41 1c 4c bf f2 97 2c bf 5a ff 30 bf 3f 8b 2b bf
       -0.7973061 -0.6741935 -0.69139636 -0.6700935
000190 69 42 2b bf d9 0d 29 bf 5d ad 46 bf 21 1e 4e bf
       -0.6689821 -0.66036755 -0.7760828 -0.80514723
0001a0 25 7e 34 bf e8 db 88 bf 88 63 84 bf 8e 96 7e bf
       -0.7050498 -1.069211 -1.0342875 -0.9944848
0001b0 dd 2e 95 bf 70 a8 88 bf e0 0c 84 bf c8 95 8c bf
       -1.1654927 -1.0676403 -1.0316429 -1.098321
0001c0 49 ec a2 bf e9 21 9c bf 2d af 94 bf ec 4a 84 bf
       -1.2728359 -1.2197849 -1.161596 -1.0335364
0001d0 a2 65 83 bf 8c 08 87 bf e7 e7 7f bf e1 d6 5c bf
       -1.0265391 -1.0549483 -0.9996323 -0.8626538
0001e0 b3 00 53 bf c6 a6 3c bf 4e d3 23 bf c8 9f 0d bf
       -0.8242294 -0.73691976 -0.639943 -0.5532193
0001f0 c5 a4 f5 be 75 c8 e6 be 4b 22 e3 be 5f d4 c7 be
       -0.47977272 -0.45074812 -0.443621 -0.39029214
000200 97 98 c1 be ca 4e f7 be f4 f1 01 bf ec de 00 bf
       -0.3781173 -0.483023 -0.50759816 -0.5034015
000210 23 c5 25 bf 75 28 30 bf b1 d8 46 bf ff 72 63 bf
       -0.6475393 -0.6881173 -0.77674395 -0.88847345
000220 ba 89 80 bf 70 27 9b bf 2a f7 91 bf 7a 56 93 bf
       -1.0042031 -1.212141 -1.1403553 -1.1510766
000230 cb e9 9f bf 60 78 a6 bf 32 93 93 bf 99 ae 8b bf
       -1.2493223 -1.3005486 -1.1529295 -1.0912658
000240 b8 19 91 bf c4 d6 6d bf f0 1b 50 bf e3 06 2a bf
       -1.1335974 -0.9290583 -0.8129263 -0.6641676
000250 61 bb 38 bf c9 b0 01 bf aa ee cf be 09 83 ee be
       -0.7216092 -0.5066038 -0.40611774 -0.46584347
000260 c4 22 b0 be 33 09 7f be 5b db 4d be d0 b3 2f be
       -0.34401524 -0.24905853 -0.20103209 -0.17158437
000270 c8 17 34 be 42 54 50 be 0d 6a a5 be 13 35 b4 be
       -0.17587197 -0.20344642 -0.32307473 -0.35196742
000280 63 17 0f bf 9c ac 11 bf b5 19 38 bf 6c 5b 31 bf
       -0.5589506 -0.56904006 -0.71914226 -0.69280124
000290 ac 27 61 bf 90 ab 64 bf d9 43 95 bf 78 f5 92 bf
       -0.8795116 -0.89324284 -1.166133 -1.1481161
0002a0 e3 95 99 bf 66 80 95 bf 0a 26 97 bf 9d 3e 8a bf
       -1.1998867 -1.1679809 -1.1808484 -1.0800358
0002b0 25 ad 84 bf 81 ae 73 bf b8 78 42 bf 01 ca 0a bf
       -1.036534 -0.95188147 -0.7596545 -0.54214483
0002c0 53 d0 f6 be 53 88 d3 be 3d 23 b3 be 54 48 81 be
       -0.48205814 -0.41314945 -0.34987822 -0.25250494
0002d0 38 4c 47 be b7 72 12 bd 96 d2 88 bc 88 79 92 3c
       -0.19462669 -0.03575393 -0.016701978 0.017880216
0002e0 00 a4 4c ba d5 ed d7 bd 32 3f 89 bd c8 12 3a be
       -0.00078064203 -0.1054341 -0.06701507 -0.18171227
0002f0 d5 ad a7 be a9 f8 f2 be 1a b2 0d bf df a4 2a bf
       -0.3274981 -0.47455338 -0.55349886 -0.66657823
000300 cf 42 69 bf 81 6e 81 bf db d6 89 bf 6a 64 97 bf
       -0.91117567 -1.0111848 -1.0768694 -1.1827519
000310 7c b5 8e bf 24 07 86 bf cf a0 96 bf 1d f2 80 bf
       -1.1149135 -1.0470929 -1.1767825 -1.0073887
000320 71 12 79 bf fa ba 4a bf 67 b2 23 bf 06 a8 03 bf
       -0.97293764 -0.79191554 -0.63944095 -0.5142826
000330 1b 66 ed be d8 fd df be fe 37 35 be 1c c7 f1 bd
       -0.46366963 -0.43748355 -0.1769714 -0.11805555
000340 51 98 e6 bd 07 98 85 bb 26 90 b0 bb db 7c 35 bd
       -0.11259521 -0.004076961 -0.0053882776 -0.044308525
000350 f6 b4 6e 3d 39 3b 38 bd e4 ef e7 bc b3 dd 44 be
       0.058278047 -0.044978354 -0.028312631 -0.19225197
000360 09 4e b5 be 69 cd c7 be 17 87 02 bf 04 4c 0e bf
       -0.354111 -0.39023903 -0.5098738 -0.5558474
000370 15 ce 4e bf 27 22 66 bf dd 04 88 bf 7e c3 94 bf
       -0.80783206 -0.8989586 -1.0626484 -1.162216
000380 fe d2 a3 bf 0f 17 7e bf f1 78 70 bf 5a 62 74 bf
       -1.2798765 -0.99253935 -0.9393454 -0.9546257
000390 38 23 42 bf 06 f3 35 bf 56 1f 19 bf 89 be 03 bf
       -0.7583499 -0.7107395 -0.5981344 -0.5146261
0003a0 3d 4d df be f7 77 93 be 99 fa 4d be 6b 93 d0 bc
       -0.43613616 -0.28802463 -0.20115127 -0.02546092
0003b0 7d 57 00 bd 55 2d 9a bd 4d a7 88 bd 90 8f db 3c
       -0.031333435 -0.07528178 -0.06672535 0.026801854
0003c0 10 f3 d1 3c 7c 9b 5a bc b4 a5 f2 bc bc 5a c0 bd
       0.025628597 -0.013342734 -0.029620029 -0.09392306
0003d0 4d 2a 7f be e4 44 ab be 4e d6 dc be 82 45 1a bf
       -0.2491848 -0.33450997 -0.43132252 -0.6026231
0003e0 11 ec 39 bf c8 9c 6c bf 4a 1b 8a bf e0 cf 95 bf
       -0.72625834 -0.9242673 -1.0789578 -1.1704063
0003f0 7f 30 90 bf a8 e2 7a bf c0 3e 90 bf 45 f2 65 bf
       -1.12648 -0.980021 -1.126915 -0.898228
